train_result/cnnmodeldict.pkl (torch, 101119 bytes, 6 tensors)

fc1.weight f4 [30, 784]
0	0x3a131516	0.0005610747
1	0xbc8d7016	-0.01726536
2	0x3b82dbed	0.0039935024
3	0xbcc6a2ac	-0.02424749
4	0x3c59917e	0.013279317
5	0xbcb0090c	-0.021488689
6	0xbcd4720a	-0.025933284
7	0x3bdd363b	0.0067508495
8	0xbcf5e1fa	-0.03001498
9	0xbb928794	-0.0044717286
10	0x3c8db690	0.017298967
11	0xbb9a1f3c	-0.0047034305
12	0xbc9d869a	-0.019229222
13	0xbce79945	-0.028271327
14	0x3bfa2d9f	0.007634833
15	0xbcf9e6d8	-0.030505583
16	0xbce75391	-0.02823809
17	0x3d15c714	0.03656681
18	0xbc0bcc8b	-0.008532654
19	0xbc906a78	-0.017628893
20	0x3ba983bf	0.005173176
21	0xbd01261a	-0.031530477
22	0xb92ba36b	-0.00016368709
23	0x3cd1d256	0.025612991
24	0xbbb2fb8d	-0.005462116
25	0x3cb0b9e0	0.021573007
26	0xbc23a03f	-0.009986936
27	0xbc902060	-0.017593563
28	0x3cd31dc4	0.02577103
29	0xbb70f5fa	-0.0036767707
30	0x3d08e50c	0.03342156
31	0x3c85af47	0.01631893
32	0x3d04ebaa	0.03245131
33	0xbcda3289	-0.026635425
34	0xbccb8ec0	-0.024848342
35	0xbcb001cd	-0.021485234
36	0xbcd288ed	-0.025700057
37	0xbc991dbd	-0.018690938
38	0x3bdb1110	0.0066853836
39	0xbd053437	-0.0325205
40	0x3a299f34	0.00064705615
41	0xbc61103b	-0.01373678
42	0xbc6e0cf1	-0.014529453
43	0x3cba46f7	0.022738917
44	0xbd090ef2	-0.03346152
45	0xbca64099	-0.020294474
46	0x3b929ea5	0.0044744783
47	0x3c904f13	0.01761583
48	0x3d0712f8	0.032977074
49	0x3a646739	0.0008712891
50	0xbd0a7e2c	-0.033811733
51	0x3cc8fb78	0.024533972
52	0xbcf5c6d2	-0.030002031
53	0x3c677405	0.014126782
54	0x3cedb13c	0.029015176
55	0xbce3ea91	-0.02782181
56	0xbc97b08c	-0.018516801
57	0x3c8d88cb	0.017277142
58	0x3bd92bf3	0.0066275536
59	0x3d121f63	0.035674464
60	0x3a1c3afc	0.0005959717
61	0xbc299fd1	-0.010353045
62	0xbd071009	-0.032974277
63	0xbd05bcf7	-0.032650914
64	0x3baa81af	0.005203448
65	0x3bcf01ef	0.006317369
66	0x3aa0ca5f	0.0012267343
67	0xbd0090c8	-0.031388074
68	0xbd196145	-0.03744628
69	0x3b21e68c	0.0024704067
70	0xba72de8e	-0.00092647306
71	0xbc64476b	-0.013933043
72	0xbc850e4f	-0.016242174
73	0xbc8ee3d4	-0.017442621
74	0xbc61e568	-0.013787605
75	0x3cc86bd2	0.024465475
76	0x3b2f4298	0.0026742574
77	0xba3fae59	-0.00073120516
78	0x3ce9c004	0.028533943
79	0xbca9c8b8	-0.020725593
80	0x3cdcbf69	0.02694674
81	0x3cac15cc	0.021006487
82	0xbcc14f48	-0.023597375
83	0xbc809110	-0.015694171
84	0xbcc7b814	-0.024379767
85	0x3c90410f	0.017609147
86	0xbc958ac9	-0.018254654
87	0x3c389ba2	0.0112675745
88	0x3c98fe51	0.018675955
89	0xbcbbb24e	-0.02291217
90	0x3c72409a	0.01478591
91	0x3c55f23a	0.01305824
92	0x3d0498c7	0.032372262
93	0xbc9f9b68	-0.019483283
94	0xbd135857	-0.03597292
95	0x3cad5b17	0.0211616
96	0x3b8ff7f5	0.0043935725
97	0x3b2236a0	0.0024751797
98	0x3cd81bf6	0.02638052
99	0x3d95b4eb	0.07309898
100	0x3ca629c3	0.020283585
101	0x3d2744aa	0.040836968
102	0x3c839a91	0.016064914
103	0x3d03373b	0.032035094
104	0x3cc6b9f4	0.024258591
105	0xbbc59b2f	-0.006030462
106	0xbbbc4aa2	-0.0057462016
107	0xbcc312e7	-0.023812724
108	0x3c9581c7	0.01825036
109	0xbcf2996b	-0.029614171
110	0x3ca29e91	0.019851001
111	0x3a3bc90e	0.00071634434
112	0xbc620942	-0.013796153
113	0xbb67b296	-0.0035354248
114	0x3ce86e81	0.028373005
115	0x3c6aa0db	0.0143205775
116	0x3ce9c4d0	0.02853623
117	0x3d25d7d9	0.04048905
118	0x3d00c898	0.0314413
119	0xbbdeb0c3	-0.006795974
120	0x3d06f34c	0.03294687
121	0x3c700ccb	0.014651488
122	0x3c8091bb	0.01569449
123	0x3dc6665c	0.09687492
124	0x3dcbc50f	0.09949695
125	0x3d8cb3f8	0.06870264
126	0x3d0031a6	0.03129735
127	0x3d937a08	0.0720101
128	0x3dc178b0	0.094468474
129	0x3d9d8f84	0.07693389
130	0x3d7e9fd6	0.06216415
131	0x3d6cac5b	0.05778156
132	0x3d0f03ef	0.03491586
133	0x3c2d395b	0.010572757
134	0xbb8084f7	-0.0039221006
135	0xbccd5857	-0.025066538
136	0x3d255e73	0.040373277
137	0xbcbf4c02	-0.023351673
138	0xbbc8d6ed	-0.006129137
139	0x3a50eee3	0.0007970167
140	0x3cc02f6e	0.023460116
141	0x3d0ba3a2	0.0340916
142	0xbca64920	-0.02029854
143	0x3cd592bc	0.026070945
144	0x3bb08d56	0.0053879423
145	0x3d9ba371	0.07599533
146	0x3c367321	0.011135847
147	0x3d15ac6d	0.03654139
148	0xbc93ac80	-0.01802659
149	0xba48a045	-0.00076532766
150	0x3cd9f29f	0.026604949
151	0x3c6792ee	0.014134152
152	0xbca24a60	-0.019810855
153	0xbc868a6f	-0.016423432
154	0x3b2dce50	0.0026520677
155	0x3919f776	0.00014683403
156	0x3d990b2a	0.074728325
157	0x3d788eee	0.060683183
158	0x3d1d37a5	0.038383145
159	0x3c90194d	0.01759019
160	0x3d35263a	0.04422591
161	0x3ccfe644	0.025378354
162	0x3d6de5d5	0.058080513
163	0x3d1c32ba	0.038134314
164	0x3cde613a	0.02714597
165	0x3d624e6c	0.05525057
166	0xbbf9a4ab	-0.007618507
167	0xbc8f1375	-0.017465333
168	0x3c079fa0	0.008277804
169	0x3c9350c0	0.01798284
170	0xbb437bd7	-0.0029828453
171	0xbcb3c5bc	-0.021944873
172	0x3d3c0e18	0.04591188
173	0x3d1c882c	0.0382158
174	0x3c42181f	0.011846571
175	0xbc32ac04	-0.0109052695
176	0xbd66f9b0	-0.056390464
177	0xbd4b2bcf	-0.049602326
178	0xbc04ef7a	-0.008113736
179	0x3d00488a	0.03131918
180	0x3cf213c8	0.029550448
181	0x3db30532	0.08741225
182	0x3d52dc08	0.05147937
183	0x3d5d7fe6	0.05407705
184	0x3dac1e3a	0.08404203
185	0x3decdb94	0.11565319
186	0x3e16273b	0.14663403
187	0x3dab2189	0.08356006
188	0x3dc01e86	0.09380822
189	0x3d95e0d5	0.07318274
190	0x3da8687b	0.08223053
191	0x3ddcbed3	0.10778584
192	0x3e0e09ac	0.13870877
193	0x3d2a7eb2	0.041624732
194	0xbb836fc3	-0.004011126
195	0xbc8f2f83	-0.01747871
196	0x3ca77062	0.02043933
197	0xba6c644e	-0.0009017632
198	0xbc3194ff	-0.010838746
199	0xbca0d70f	-0.019633798
200	0x3d08146b	0.033222597
201	0x3cdb9b6c	0.02680751
202	0xbd43ed82	-0.047833927
203	0xbd7255f6	-0.05916401
204	0xbd8d7753	-0.06907525
205	0xbd8dfdbb	-0.06933161
206	0xbca770fd	-0.02043962
207	0x3cb6a939	0.022297489
208	0x3de22b93	0.110434674
209	0x3dbcf7e2	0.092269674
210	0x3e80c5d1	0.25150922
211	0x3e33575c	0.17513794
212	0x3e269a3f	0.16269778
213	0x3e4fb5f6	0.20284256
214	0x3df2cac5	0.118550815
215	0x3e04e6a7	0.12978612
216	0x3e234ceb	0.1594731
217	0x3d867b6f	0.06566512
218	0x3c425f3c	0.011863526
219	0x3d6947f7	0.056953397
220	0x3da9606d	0.08270345
221	0x3dc0933f	0.09403085
222	0x3d34bddc	0.044126377
223	0xbc1c74d1	-0.009549336
224	0x3bf44d10	0.0074554756
225	0xbb401925	-0.0029311862
226	0x3caa14fc	0.02076196
227	0x3cba0652	0.022708092
228	0x3cffc651	0.031222494
229	0x3c65ec13	0.014033335
230	0xbb1905fa	-0.002334951
231	0xbdb18ef7	-0.086698465
232	0xbd845f1f	-0.064634554
233	0xbd25034d	-0.04028635
234	0xbcef4d6f	-0.029211728
235	0x3d6e048b	0.0581098
236	0x3e00e093	0.12585668
237	0x3e221077	0.15826593
238	0x3e2fcc75	0.17167838
239	0x3da1cc0c	0.07900247
240	0x3d190b37	0.03736421
241	0x3a857d2a	0.0010184397
242	0x3d6f4895	0.05841883
243	0x3d4e07f3	0.05030055
244	0x3cb399e8	0.021923974
245	0x3d222b74	0.03959222
246	0x3c4bfe2f	0.012450739
247	0x3d3f8b94	0.04676397
248	0x3e1af2c9	0.15131678
249	0x3da9b69b	0.08286782
250	0x3d73676c	0.059424803
251	0x3d1b1a0f	0.03786665
252	0x3ccd4526	0.025057387
253	0xbc7803df	-0.015137642
254	0xbd1c2eab	-0.038130444
255	0x3c72601d	0.014793423

fc1.bias f4 [30]
0	0x3bfac635	0.0076530227
1	0x3aff8ef7	0.0019497563
2	0xbc22d4f2	-0.009938465
3	0xbd192f19	-0.03739843
4	0x3ce01cfb	0.027357569
5	0x3ad767ba	0.0016434111
6	0x3cea0473	0.028566575
7	0x3d0b2fe5	0.033981223
8	0xbcd9e923	-0.026600426
9	0x3c4d5f1f	0.012534886
10	0xbd21c81f	-0.03949749
11	0x3c10c466	0.008835888
12	0x3ad7bccc	0.0016459464
13	0x3d16f077	0.03685042
14	0x3d45ddb6	0.048307143
15	0xbcd6adfc	-0.02620601
16	0x3cc6558a	0.02421071
17	0x3d0a9741	0.033835653
18	0x3ccc7a79	0.024960743
19	0xbc45be10	-0.01206924
20	0xbcbd31cc	-0.023095034
21	0x3d1629aa	0.036660828
22	0xbd14f517	-0.03636655
23	0x3bfcfb58	0.007720392
24	0x3cc66a6c	0.024220668
25	0xbc0e1bf6	-0.008673659
26	0xbbfa41fc	-0.0076372605
27	0xbc349241	-0.011021198
28	0x3cc49a8d	0.023999477
29	0x3cad7663	0.021174615

fc2.weight f4 [30, 30]
0	0x3db4147a	0.08792968
1	0xbd196394	-0.03744848
2	0xbe296bf3	-0.16545086
3	0x3ddc38cb	0.1075302
4	0xbdc894b6	-0.09793989
5	0x3d42ef03	0.04759122
6	0xbe78f2de	-0.24311396
7	0x3e006240	0.1253748
8	0xbdbb3a96	-0.09142034
9	0xbd3082a8	-0.043093354
10	0xbda4e2ff	-0.080511086
11	0x3e8af9a6	0.27143592
12	0x3db079ed	0.086170055
13	0x3e1a067d	0.15041538
14	0x3e1ccc74	0.15312368
15	0xbd23ca62	-0.03998793
16	0x3e72de59	0.23717631
17	0x3ccc12d1	0.024911316
18	0x3db457be	0.08805798
19	0xbdb531aa	-0.08847363
20	0xbdb8fde2	-0.09032799
21	0x3e0bc6af	0.1365001
22	0xb9198d86	-0.00014643939
23	0x3c1693d8	0.009190522
24	0xbc3d3c79	-0.011550062
25	0x3e1a696a	0.15079275
26	0x3dc8c910	0.09803975
27	0x3de55da8	0.11199504
28	0xbe21554e	-0.15755197
29	0x3dbed582	0.09318067
30	0x3dc15ee8	0.0944193
31	0x3d1b8b1d	0.037974466
32	0x3c39938a	0.01132668
33	0x3ddf7b35	0.10912172
34	0xbaf46b87	-0.0018647768
35	0xbd3bea10	-0.045877516
36	0xbdee39b7	-0.11632102
37	0x3eadf363	0.33974752
38	0xbd272271	-0.04080433
39	0x3e240ca0	0.16020441
40	0xbd4cadce	-0.04997044
41	0x3dec48e0	0.11537337
42	0x3e233bfa	0.15940848
43	0xbe78ba50	-0.24289823
44	0x3b14df40	0.0022716075
45	0xbd34026f	-0.043947633
46	0x3e3e7ed3	0.18603067
47	0x3e1dde13	0.15416746
48	0x3ddfc194	0.10925594
49	0xbe897f76	-0.26855057
50	0xbd6857ef	-0.056724485
51	0x3dcb4b71	0.09926499
52	0xbe3e675e	-0.18594119
53	0x3cc4b998	0.02401428
54	0xbd0cea15	-0.034402926
55	0x3c28a4ef	0.0102932295
56	0xbd3927e3	-0.045204055
57	0xbdbaecc0	-0.09127188
58	0x3d847326	0.06467275
59	0xbe95f4b1	-0.29288247
60	0x3eb9cb54	0.3628794
61	0xbcbf8340	-0.023378015
62	0xbe87b282	-0.26503378
63	0xbd9cf31d	-0.07663558
64	0x3e4cb782	0.19991878
65	0xbe1f24ea	-0.15541425
66	0xbe8c1080	-0.27356339
67	0xbe428984	-0.1899777
68	0x3d5167e8	0.051124483
69	0x3c802c78	0.015646204
70	0xbca4d188	-0.020119444
71	0xbd601712	-0.0547095
72	0xbc6a53b0	-0.014302179
73	0x3ce6dc74	0.028181292
74	0x3e1cda56	0.15317664
75	0x3db1a9f7	0.08674996
76	0x3e3da91a	0.18521538
77	0x3e9ccb50	0.30623865
78	0x3d887f3a	0.066648915
79	0xbe50a5c2	-0.20375732
80	0xbe3a151d	-0.18172117
81	0xbe819ecf	-0.25316474
82	0xbb7da180	-0.0038700998
83	0xbd8ec2db	-0.069707595
84	0xbe042bab	-0.12907283
85	0x3d1dd628	0.038534313
86	0xbc3a6f00	-0.0113790035
87	0xbdfb8d3f	-0.122828
88	0xbd6ed3c2	-0.058307417
89	0x3d16530d	0.036700297
90	0xbea12038	-0.31469893
91	0xbdb6b7d3	-0.089217804
92	0x3e20043d	0.15626617
93	0x3d255167	0.040360834
94	0x3c38a988	0.011270888
95	0x3dd8b267	0.105809025
96	0xbc55fcfc	-0.013060804
97	0x3e3f4b98	0.1868118
98	0x3e3f907b	0.18707459
99	0xbe1da87e	-0.15396306
100	0x3e0871f6	0.13324723
101	0x3dc82d43	0.09774258
102	0xbe2cf067	-0.16888581
103	0x3e49468e	0.1965582
104	0xbea3fde6	-0.32029647
105	0x3df89e3e	0.12139557
106	0xbe309635	-0.172448
107	0x3e6da325	0.23206766
108	0x3d5e6ab3	0.054300975
109	0x3e0ed338	0.13947761
110	0x3da620f3	0.08111753
111	0xbd18268e	-0.037146144
112	0xbe2149a8	-0.15750754
113	0xbdfa8638	-0.122326314
114	0x3d21112b	0.039323013
115	0x3d5bbba1	0.053645734
116	0x3cf480f1	0.02984664
117	0x3d04a848	0.032387048
118	0xbe060f29	-0.1309172
119	0x3e01d2ab	0.1267802
120	0xbda71bfd	-0.08159635
121	0x3cc2cdb7	0.023779733
122	0x3cc634f8	0.02419518
123	0xbd8dd92e	-0.06926189
124	0xbe2ca539	-0.16859902
125	0xbe16e8f3	-0.147373
126	0x3d30069b	0.04297505
127	0x3e84e456	0.25955456
128	0x3d061aa0	0.032740235
129	0xbd9d6edb	-0.0768716
130	0xbd76feca	-0.06030158
131	0xbd83f667	-0.06443482
132	0x3d9aeaf5	0.07564346
133	0xbe145b26	-0.14487895
134	0x3e76ef51	0.2411473
135	0x3d97e517	0.07416742
136	0xbe0912f9	-0.13386144
137	0x3d541709	0.05177978
138	0x3e3ef247	0.18647109
139	0xbdf4ea40	-0.11958742
140	0xbdb04a4f	-0.08607923
141	0x3e81a07b	0.2531775
142	0x3db379e6	0.08763485
143	0x3d14f2e6	0.03636446
144	0x3e041767	0.12899552
145	0xbde596db	-0.11210414
146	0xbd918e57	-0.07107227
147	0xbd070509	-0.032963786
148	0xbe1b35bd	-0.15157218
149	0x3e9b4324	0.30324662
150	0xbc68da7e	-0.014212249
151	0xbddb5a79	-0.10710616
152	0xbec66386	-0.38747805
153	0xbdd90849	-0.105972834
154	0x3dce647b	0.10077759
155	0xbda4c6ff	-0.08045768
156	0x3e994fa6	0.2994358
157	0xbe889ebf	-0.26683614
158	0x3e3311ec	0.17487305
159	0x3e2dccd6	0.1697267
160	0x3d9fe14c	0.07806644
161	0xbea51a7b	-0.32246765
162	0xbda0bb9f	-0.07848286
163	0x3e93fc7a	0.28903562
164	0xbbf2eb28	-0.0074132867
165	0x3d86456d	0.06556211
166	0xbd8ef98f	-0.06981193
167	0x3da648de	0.08119367
168	0x3e61d3ab	0.22053401
169	0x3e2cb30d	0.16865177
170	0xbd1f99ec	-0.03896515
171	0x3bf3e0f6	0.007442589
172	0xbe04b146	-0.1295825
173	0x3e1e61fe	0.15467069
174	0x3d398891	0.045296255
175	0x3c931d32	0.017958257
176	0x3ce29b23	0.027661866
177	0x3e154d1b	0.14580195
178	0x3ccc8e2e	0.02497014
179	0x3d02b898	0.031914324
180	0x3df6f5d1	0.120586045
181	0xbd908705	-0.07057003
182	0x3e325b33	0.17417602
183	0x3d231320	0.03981316
184	0x3dfaf478	0.1225366
185	0x3ca3b84a	0.019985337
186	0xbabaa7d3	-0.0014240689
187	0xbe1025fd	-0.14076991
188	0xbdc7fe9e	-0.09765361
189	0x3dad8213	0.08472075
190	0xbdfdb525	-0.12388066
191	0x3ecb27f3	0.39678916
192	0x3e00ba8a	0.12571159
193	0xbe11da6d	-0.14243479
194	0x3d84a9cf	0.06477701
195	0x3ce7b74a	0.028285641
196	0x3dd7cd49	0.10537202
197	0xbd47d56b	-0.048787516
198	0xbd330bfd	-0.043712605
199	0x3e421fa2	0.1895738
200	0xbe1a206e	-0.15051433
201	0x3d810848	0.06300408
202	0x3e3832bc	0.17988104
203	0x3db73427	0.08945494
204	0xbd60fa8e	-0.054926448
205	0xbc40544f	-0.011738851
206	0x3d39aa17	0.045328226
207	0x3abb4bbb	0.0014289537
208	0x3e13ad69	0.1442162
209	0xbe1060f4	-0.14099485
210	0xbe512e86	-0.20427904
211	0xbb797bf6	-0.0038068271
212	0xbd6a53e1	-0.0572089
213	0x3e14f60a	0.14546981
214	0xbd375d06	-0.04476645
215	0x3d8330cc	0.06405792
216	0x3ce36801	0.027759554
217	0x3e5927a0	0.21206522
218	0xbdb73bf7	-0.08946984
219	0x3ce45332	0.027871702
220	0x3ddc47e1	0.10755897
221	0xbe823651	-0.25432065
222	0x3d576016	0.05258187
223	0xbd029723	-0.031882416
224	0x3e6be77a	0.2303752
225	0xbc834dfb	-0.016028395
226	0x3e9df27a	0.30849057
227	0xbde66341	-0.112494
228	0x3e180775	0.14846595
229	0x3d8ac7fd	0.06776426
230	0x3d5b318c	0.05351405
231	0x3d6346e1	0.055487517
232	0xbd79a6c0	-0.06095004
233	0x3dbfb314	0.09360328
234	0xbd12ddd5	-0.035856087
235	0x3dc06445	0.09394125
236	0x3db49796	0.08817975
237	0xbde88b66	-0.11354713
238	0xbe23f410	-0.16011071
239	0x3e2aa2e1	0.16663696
240	0xbe9ba3d3	-0.30398425
241	0xbc9bcedd	-0.019019539
242	0x3e30b000	0.17254639
243	0x3e20856c	0.15675896
244	0x3e8590da	0.26087075
245	0x3d640398	0.05566749
246	0xbe10e7b4	-0.14150888
247	0x3e6fa3e6	0.23402366
248	0x3dea7764	0.11448553
249	0xbd167268	-0.0367302
250	0xbe2c1949	-0.1680652
251	0x3dbe1427	0.092811875
252	0x3b0b23c0	0.0021231025
253	0xbed5ffe8	-0.41796803
254	0x3d778617	0.060430612
255	0xbdbed0af	-0.09317147

fc2.bias f4 [30]
0	0xbb44f3c6	-0.0030052527
1	0x3c27691e	0.010217933
2	0xbe0705b9	-0.13185777
3	0x3dd4aefb	0.103849374
4	0x3e48e215	0.19617493
5	0x3c056dcb	0.008143852
6	0xbe3168fd	-0.17325206
7	0xbca0634c	-0.019578598
8	0xbe2b2755	-0.16714223
9	0xbc299275	-0.0103498595
10	0xbd21d72c	-0.039511845
11	0x3da73c56	0.08165805
12	0x3da2e4ba	0.079537824
13	0x3e50cbae	0.20390198
14	0x3dc994d0	0.09842837
15	0x3dd18dba	0.1023211
16	0xbd51d633	-0.051229667
17	0x3e032f36	0.12810978
18	0x3d215aff	0.03939342
19	0x3e643f03	0.22289662
20	0x3db8cd4f	0.090235345
21	0x3d6375e4	0.05553235
22	0xbcc573b6	-0.024103027
23	0xbe0cd64f	-0.13753627
24	0x3de50d4d	0.111841775
25	0x3dc6e969	0.09712488
26	0x3e12f74e	0.14352152
27	0x3d9b4a73	0.075825594
28	0xbd296cb0	-0.041363418
29	0x3cb6ffd9	0.022338795

fc3.weight f4 [10, 30]
0	0x3e5d0135	0.21582492
1	0xbe77e156	-0.24207053
2	0xbedc2216	-0.42994756
3	0x3ddf1292	0.10892214
4	0x3db18320	0.08667588
5	0xbd9d9341	-0.07694102
6	0xbe3ed214	-0.18634826
7	0xbce08c5f	-0.027410684
8	0xbe636d2e	-0.22209617
9	0x3e735fc5	0.23767002
10	0xbe6c250d	-0.23061009
11	0x3d9addc5	0.075618304
12	0x3e6f08da	0.2334322
13	0x3e5bd7bd	0.21469016
14	0xbc9a6d90	-0.018851072
15	0xbe476d08	-0.19475186
16	0x3e624f62	0.22100595
17	0xbe711e2f	-0.2354667
18	0xbe9f762e	-0.3114485
19	0xbe472ed1	-0.19451453
20	0xbe7c7727	-0.24654828
21	0x3d1354cb	0.035969537
22	0x3dcb04ef	0.099130504
23	0x3ad0a758	0.0015919013
24	0xbee5e484	-0.44900906
25	0x3daf32b7	0.08554595
26	0x3debf925	0.1152213
27	0x3e038055	0.12841924
28	0xbdb8bad9	-0.09020013
29	0x3e3e480e	0.18582174
30	0xbe4ef525	-0.20210703
31	0x3dec2b6b	0.11531719
32	0xbda51aff	-0.0806179
33	0xbd904d40	-0.07045984
34	0xbe734bef	-0.23759435
35	0xbdc5b74f	-0.09654104
36	0x3e7891d4	0.24274379
37	0xbe69d58d	-0.2283537
38	0x3e29f846	0.16598615
39	0x3d96c4ec	0.073617786
40	0x3d9060cc	0.070497125
41	0xbe9aa80c	-0.30206335
42	0xbcad831b	-0.02118068
43	0xbcafae15	-0.021445313
44	0xbc8fbc8b	-0.017545959
45	0xbe849323	-0.25893506
46	0xbec90377	-0.39260456
47	0xbbfe7bc8	-0.0077662207
48	0x3e2e9504	0.17049032
49	0x3e2f4e33	0.17119674
50	0x3e0400a5	0.12890871
51	0xbef2faf4	-0.47457087
52	0x3e0e5eee	0.139034
53	0x3de619eb	0.11235412
54	0x3db3ccc0	0.08779287
55	0xbd885ea4	-0.06658676
56	0x3e634978	0.22195995
57	0xbe263f59	-0.16235103
58	0xbe584008	-0.21118176
59	0x3d33dee4	0.043913737
60	0x3ba05bd7	0.0048937607
61	0x3da958c3	0.08268883
62	0xbca5b230	-0.020226568
63	0xbcb19511	-0.021677526
64	0x3e4ec832	0.20193556
65	0xbe4e6b12	-0.20158032
66	0x3cc32e2e	0.023825731
67	0x3e397cd2	0.18114021
68	0x3d388e29	0.04505745
69	0x3e11065f	0.14162587
70	0xbe65c2b3	-0.22437553
71	0xbdb67093	-0.089081906
72	0x3e973973	0.29536018
73	0xbe7fcb5a	-0.24979916
74	0x3e67b225	0.2262655
75	0xbdf143ae	-0.11780487
76	0x3cf0223c	0.0293132
77	0x3e6c8c6f	0.23100446
78	0xbd6c7b26	-0.05773463
79	0x3e46d083	0.19415478
80	0x3de093d9	0.109657
81	0x3e4e2203	0.20130162
82	0x3dd4e2b8	0.10394806
83	0x3c8adda0	0.016951382
84	0xbe406a74	-0.18790609
85	0xbdc8f1f0	-0.09811771
86	0xbe3dd452	-0.18538025
87	0x3e592e69	0.2120911
88	0x3e16b530	0.14717555
89	0xbea9a2e8	-0.331321
90	0x3dbd8a2c	0.0925487
91	0x3e441038	0.19146812
92	0x3e3cf1a7	0.18451558
93	0xbd23bc48	-0.03997448
94	0xbd5c5ffb	-0.05380247
95	0xbe0be53d	-0.13661666
96	0x3d576d87	0.052594688
97	0xbd3c847f	-0.046024796
98	0xbe8d5432	-0.27603298
99	0x3db3ff65	0.08788947
100	0x3e4672cc	0.19379729
101	0xbe86f3bb	-0.26357827
102	0xbdbad8d3	-0.09123387
103	0x3e3d824f	0.1850674
104	0xbe0ad6b3	-0.13558464
105	0x3d0f13cd	0.034930993
106	0xbd7474c9	-0.059681688
107	0xbcd3fdda	-0.025877882
108	0xbe596076	-0.21228203
109	0xbeb1387c	-0.34613407
110	0x3e143d4a	0.14476505
111	0xbb31775c	-0.00270792
112	0xbdb6b7cf	-0.089217775
113	0xbd71b99e	-0.05901491
114	0xbe61c6ba	-0.22048464
115	0xbe5b63a3	-0.21424727
116	0x3e3e6c48	0.18595994
117	0x3e19f01e	0.15033004
118	0x3d3226f3	0.043494176
119	0x3d8e921a	0.069614604
120	0xbe7f255e	-0.24916598
121	0xbe6e6ed9	-0.23284473
122	0xbef7e06c	-0.48413408
123	0x3e45eb81	0.19328119
124	0xbd40d921	-0.04708207
125	0x3e6dbd2e	0.23216698
126	0xbe66599a	-0.22495118
127	0xbdf2a1ae	-0.11847244
128	0xbe74f183	-0.23920254
129	0xbefe8270	-0.4970889
130	0xbdee7895	-0.11644093
131	0xbdd168ca	-0.10225065
132	0x3e2b37c8	0.16720498
133	0x3c500278	0.012695901
134	0x3e43e565	0.19130476
135	0x3e402aca	0.18766323
136	0xbed4ca59	-0.4156063
137	0xbe9783c1	-0.29592708
138	0xbeb16221	-0.3464518
139	0xbdcb4871	-0.099259265
140	0x3d9b8f77	0.07595723
141	0x3e934858	0.2876613
142	0x3d907de6	0.07055263
143	0x3c327786	0.010892754
144	0x3e063010	0.13104272
145	0x3d73284f	0.059364613
146	0xbc2b44f8	-0.010453455
147	0xbe63839b	-0.22218172
148	0x3cc36f01	0.023856642
149	0xbd155c95	-0.036465246
150	0xbd3e9dc8	-0.04653719
151	0xbe7c96cc	-0.246669
152	0x3ec7667e	0.38945383
153	0xbe562c76	-0.20915398
154	0x3e246486	0.16053972
155	0x3e87e97e	0.26545328
156	0x3d61abac	0.05509536
157	0x3c961b95	0.018323699
158	0x3e0a7bdd	0.13523813
159	0x3e1a55b5	0.15071757
160	0x3dc3c537	0.095591
161	0xbdeb240a	-0.11481483
162	0xbe6141fd	-0.21997829
163	0x3e61c5ce	0.22048113
164	0xbe23b5eb	-0.15987365
165	0xbe3c274d	-0.18374367
166	0x3e4328d2	0.1905854
167	0x3de1262d	0.109936096
168	0x3e2cb528	0.1686598
169	0xbd8fa3fb	-0.07013699
170	0x3db9ae6d	0.09066472
171	0x3d99a4cd	0.075021364
172	0x3d069db4	0.03286524
173	0xbf0af83b	-0.5428502
174	0xbdba1958	-0.09086865
175	0xbca966b3	-0.020678854
176	0x3d7ab287	0.061205413
177	0x3d093bbb	0.03350423
178	0xbd86d380	-0.06583309
179	0x3e4a7e47	0.19774733
180	0x3e753a39	0.23947991
181	0xbe9c0cf2	-0.30478626
182	0x3e3b44c2	0.18287948
183	0x3e0bae76	0.1364077
184	0xbeaf8ea4	-0.34288514
185	0x3e6d808a	0.23193565
186	0xbd676a63	-0.056497943
187	0xbcff2bf5	-0.03114889
188	0xbdd23377	-0.102637224
189	0xbd971623	-0.07377269
190	0xbeb27a21	-0.34858802
191	0x3e008691	0.12551333
192	0x3e537c3d	0.20652862
193	0xbdaa4d8f	-0.083155744
194	0x3e510186	0.20410737
195	0xbe64d409	-0.2234651
196	0xbde80241	-0.11328555
197	0xbea1dc0a	-0.3161319
198	0x3e75c558	0.24001062
199	0x3e1f5c01	0.1556244
200	0xbc144b46	-0.00905115
201	0x3e74467d	0.23855014
202	0xbc91129b	-0.017709067
203	0x3d138051	0.036011044
204	0xbe84e8a7	-0.2595875
205	0x3d132600	0.03592491
206	0x3cc9412a	0.024567205
207	0xbea38b2e	-0.31942123
208	0xbed81837	-0.42205974
209	0xbe903488	-0.28165078
210	0x3d1c1ec1	0.038115267
211	0x3e0d9407	0.13825999
212	0x3e31ead8	0.17374742
213	0x3db54f7c	0.08853051
214	0xbd95cd97	-0.07314604
215	0xbd37746c	-0.044788763
216	0x3e29fbb3	0.16599922
217	0xbeaada5a	-0.33369714
218	0x3e3e8eaf	0.18609117
219	0x3eac4b9e	0.3365144
220	0xbe272acc	-0.1632492
221	0x3c583267	0.013195611
222	0xbe2cd7db	-0.16879217
223	0x3e477400	0.19477844
224	0x3d957899	0.07298393
225	0x3de4fbb9	0.11180825
226	0x3d149099	0.03627071
227	0x3e8a4d10	0.2701192
228	0xbd872d2c	-0.06600413
229	0xbe378184	-0.179205
230	0xbe9efefb	-0.3105391
231	0xbd8c862f	-0.06861531
232	0xbde1ab4b	-0.11019
233	0x3dc885de	0.09791158
234	0x3e1e3abe	0.15452096
235	0xbeb44867	-0.3521149
236	0xbe908b7d	-0.2823142
237	0x3dba7f00	0.091062546
238	0x3e87e006	0.26538104
239	0xbe035a5d	-0.1282744
240	0xbde7c8ac	-0.11317572
241	0x3d4dd82a	0.05025498
242	0xbe427a6d	-0.18992014
243	0x3de9a478	0.11408323
244	0x3e92d9d6	0.2868182
245	0x3e7a9e22	0.24474385
246	0xbe263334	-0.1623047
247	0x3d57a8db	0.052651267
248	0xbeebb46c	-0.46036088
249	0xbd01be96	-0.031675898
250	0x3e2e1a9d	0.1700234
251	0xbd78fa55	-0.06078561
252	0xbe862cb8	-0.26205993
253	0xbe4ebe2a	-0.2018973
254	0xbed404d3	-0.4140993
255	0xbdd04202	-0.1016884

fc3.bias f4 [10]
0	0x3cd5d299	0.026101397
1	0x3d542afc	0.051798806
2	0xbd41fa9a	-0.047358133
3	0xbd28163e	-0.041036837
4	0x3cf2b55e	0.029627498
5	0xbe2bcb42	-0.16776755
6	0xbc96fd1a	-0.018431235
7	0xbcdda11b	-0.02705436
8	0x3e2846dd	0.16433282
9	0x3e305a0a	0.17221847
