train_result/modeldict.pkl (torch, 101095 bytes, 6 tensors)

fc1.weight f4 [30, 784]
00000000: 33af 4abc 516c 073c b792 d7bc d577 8ebb
00000010: 8177 ff3c 6a78 033d 213a 90bc 8d3c c8bc
00000020: 8aba 133d 5ca4 37bc 6293 163d 7ddb 05bc
00000030: 7956 adbc 42c5 7dbc 42c0 223d 67c6 e63c
00000040: 21b3 bf3b e480 853c 1b96 e6bc ba6c 943b
00000050: 004f 013d 7489 21bb 8171 de3c b4a8 abbc
00000060: 7155 1e3c fd5b 2cbc a970 dfbc 43a2 bcbb
00000070: 4487 85bc adaa 2d3b 659f 823c 8f55 de3c
00000080: 6d01 c03c c59c 053d dde2 e4bb cc96 9438
00000090: 09a4 1a3c 7a9b 50bc bd58 863c c151 fe3c
000000a0: 955d 8dbb 3f57 5abc 896c bb3c a5f3 32ba
000000b0: b431 95bc 6f1e 08bc edf3 143b 99a0 f23c
000000c0: bf25 96bc 6ba0 ac3a f98a 72bb e774 a7bb
000000d0: d110 d3bc 0b9e d1bb db53 873a 8f7e e83c
000000e0: 4bd7 893a 4247 243d a19c c23c eeb2 573b
000000f0: 4414 9dbc 11e9 a6bc a983 b63b 443b a6bc
00000100: 49d7 ddbc 1451 0a3a 43fa b8bb e698 40bb
00000110: 5908 083d 5d9c 913c afa3 e1bc 7bbc edbb
00000120: 8575 1b3c 7efb 173d d5a4 1a3c cc33 e8bc
00000130: 35d5 edbc 0c97 27bb b57c 073c dff8 bfbc
00000140: 51fe c83c dd75 4dbc b98c e4bb add7 a03c
00000150: 7751 b53c 0050 223d 4c1f 8f3a 8b80 cd3a
00000160: 5404 323a 2132 9ebb 4e88 503b a902 c1bc
00000170: 746f 253d 5fee 87bc a226 123d c5f2 df3c
00000180: 2f81 b4bc 3918 343c 9d60 cdbc b60b 523c
00000190: 427e ff3c fe4c 82bc 54d5 1fbc b11e 0d3c
000001a0: d73d a03c 29bb 13bb c5c6 113d 227a 6ebc
000001b0: 4c16 893a 4d1b f6bb 918e ea3c 1cfa 143d
000001c0: a2d0 c4bc e1b0 b73b 11e7 f23c b11b 9c3c
000001d0: 979f fa3c d496 153d a4f4 f1bc 2fd8 bcbb
000001e0: fd23 b0bc 197c 8e3b f9ba 6abb d2de 123d
000001f0: 587c e3bc 67d3 b63c 7760 e5bc 4fa1 003d
00000200: 4209 c73c a4d5 093d 4f11 92bb a16c 683c
00000210: 93e9 cabc 2488 293d 32ee 8abc c1a0 ba3c
00000220: 8547 b03c cd66 51bc 2457 1c3d 764f 0c3d
00000230: eee5 753b 69a1 f93c 0e01 47bb 7dc4 ed3c
00000240: 6551 143c f5bb 703c cdc2 c23c 0f77 bf3c
00000250: 2e5d 46bc 603d 76bb 3f45 ff3c 602b b03c
00000260: 15eb 0d3c 7e0b a73a 0a2f 2cbc 8a0a 2e3c
00000270: 6382 8abb d699 febc 9a84 fe3b 3dcf 243b
00000280: 82cd fabb 3f97 1c3d 7a9b c73c 0754 38bc
00000290: 701e 243d 8df5 e8bc 4646 68ba 7b68 c7bb
000002a0: 1a0b 08bb ac86 fd3a ef47 0a3d 99e0 b23b
000002b0: 8c04 dcbc f51d d63c fd9c 433c 5a29 243d
000002c0: e680 ee3c 4f8f 0e3d c6b8 853c 2aa2 c23c
000002d0: 1da4 c93b 0fdd 97bc 498f 6d3b ce87 bcbc
000002e0: f2d9 24bd 5457 dabc f598 55bc d653 a7b8
000002f0: 898e 9a3c 8959 1d3d 41a5 a0bc a113 a6bc
00000300: 200a 6a3c 717e d63c 0bdd a2bb 7b7f ecbb
00000310: ab43 e63c c9bd ccbc c86a 103d a5dc dc3c
00000320: ad3d 093d bd17 93bc d625 993c 5efa bd3b
00000330: 231f 153c fc4f fd3c 63c2 6d3c 2e64 d93b
00000340: c60a 803b 239f 663c d297 c7bc 3ec2 e83c
00000350: a3ca 013b 4b65 03bc cebf 7cbc 9abf e2bb
00000360: 15cf 6dbc bd9b fb3b 77ad 323c e455 113d
00000370: f690 003c dde7 ac3c 3b55 debb e4dd 203d
00000380: d9da 99bc e145 04bc f808 013d 4dd3 dd3b
00000390: 8cbf 8fbc b0e2 a5bb ba3d a5bc 0152 1e3d
000003a0: f031 02ba e2ee d8bc 094c 193d a9b8 8e3b
000003b0: 3d41 27bc 8e7b 6dbb 4de5 dc3c 0ca5 133d
000003c0: c357 eebc 4724 fb3c 5b9c fa3c b59f b33b
000003d0: f3c1 37bb ead5 f13a c70b c03c 8308 053c
000003e0: c636 a7bc 64b9 0b3d 0127 1dbc 4b39 66bc
000003f0: 3dd1 4bbc 4b2d a63b 6d97 233c fe4e ce3c
-0.012370872 0.008265571 -0.026315076 -0.004347781 0.031184914 0.032097258 -0.017605843 -0.024442935
0.03606657 -0.01120862 0.03676165 -0.008170006 -0.021159397 -0.015488924 0.039734133 0.028170777
0.0058502113 0.016296811 -0.028147748 0.004529563 0.03156948 -0.002464858 0.027153732 -0.020954467
0.0096639255 -0.010519979 -0.0272754 -0.005756648 -0.016299851 0.0026499436 0.015945146 0.027140407
0.02343818 0.03262021 -0.006985052 7.085278e-05 0.009438523 -0.012732381 0.016399736 0.031044843
-0.0043141344 -0.013326465 0.022878902 -0.0006826467 -0.018212177 -0.008308037 0.00227284 0.029617595
-0.018328546 0.0013170367 -0.0037009104 -0.0051103714 -0.025764855 -0.006397014 0.0010324673 0.02838066
0.0010516433 0.04010702 0.023756327 0.0032913047 -0.019174702 -0.020374807 0.0055698943 -0.020291932
-0.027080195 0.0005276364 -0.005645068 -0.002938801 0.033211086 0.017774755 -0.02754387 -0.0072551346
0.009488468 0.037105076 0.009438713 -0.028345011 -0.02903233 -0.0025572209 0.008269479 -0.0234341
0.02453533 -0.012540308 -0.0069747833 0.019634092 0.022133572 0.039627075 0.0010919361 0.0015678568
0.0006790806 -0.004827753 0.0031819525 -0.023560839 0.040389493 -0.016593156 0.035681374 0.027337441
-0.022034256 0.010992103 -0.025070483 0.012820175 0.031188134 -0.015905853 -0.009755451 0.008613274
0.019560738 -0.0022541976 0.035589952 -0.014555486 0.0010458915 -0.0075105787 0.028632434 0.036371335
-0.024025265 0.0056058024 0.029651197 0.019056173 0.030593676 0.036520794 -0.029535599 -0.005763076
-0.021501536 0.0043482897 -0.003581701 0.03585703 -0.027769253 0.022317601 -0.0280001 0.031403836
0.024296407 0.03365101 -0.0044576298 0.014186055 -0.02476958 0.0413896 -0.016959284 0.022781732
0.021518478 -0.012780857 0.03816904 0.034255467 0.0037521082 0.030472474 -0.003036562 0.029024357
0.009052609 0.01469325 0.023774529 0.023372201 -0.012107177 -0.0037573203 0.031160949 0.021505058
0.008662005 0.0012744514 -0.010509262 0.01062263 -0.004226969 -0.031079214 0.007767272 0.0025147938
-0.007653893 0.038230177 0.02436613 -0.011250502 0.04006809 -0.0284374 -0.0008860569 -0.006085453
-0.002075857 0.0019342504 0.033760007 0.005458903 -0.026857637 0.026137332 0.011939284 0.0400785
0.029114198 0.03480464 0.016323458 0.023758966 0.006153597 -0.018538026 0.0036248735 -0.023013975
-0.04024691 -0.02665297 -0.013036956 -7.978796e-05 0.018866794 0.038415466 -0.01961005 -0.020273032
0.014284641 0.026183339 -0.004970198 -0.0072173453 0.028108438 -0.02499284 0.035258085 0.02696068
0.033506084 -0.017955655 0.0186948 0.0057976684 0.009101662 0.030921929 0.014511677 0.006634257
0.0039075343 0.014076027 -0.024364386 0.028412934 0.0019804619 -0.008019756 -0.015426589 -0.0069198133
-0.014514704 0.0076784776 0.010905615 0.035482302 0.007847061 0.021106655 -0.0067850626 0.03927411
-0.018781113 -0.008073301 0.031502694 0.006769574 -0.017547391 -0.0050624236 -0.020171035 0.038652424
-0.0004966548 -0.026481096 0.03742603 0.0043555093 -0.010208425 -0.0036236974 0.026964808 0.036046073
-0.029094582 0.030656947 0.030592134 0.005481685 -0.0028039187 0.0018450592 0.023443116 0.008119705
-0.02041186 0.03411235 -0.009591819 -0.014051746 -0.012440023 0.0050713173 0.009984833 0.02518415

fc1.bias f4 [30]
00000000: f136 963c 380a 27bc 6ef3 23bd 0a6e d63c
00000010: 521e 95bb 5747 f93b 9d42 12bc 3eb3 fcbb
00000020: 4f2c 91bb 9406 053c 90a0 8f3a 9b80 d53c
00000030: ed5d 013a 4802 b2ba 1976 c5bc 5ef3 e83c
00000040: 3f67 383c 7486 85bd dda1 463c 88b6 f6bc
00000050: e1b3 573d 5e09 1bbc 1acb 01ba 2b81 fb3c
00000060: 7a97 763d fcee f13c 4c29 efbc e049 e93c
00000070: baa6 e33c c9ae ea3c
0.018336745 -0.010195307 -0.040027075 0.026175518 -0.0045507336 0.0076073813 -0.008927015 -0.007711797
-0.004430331 0.008119244 0.0010957886 0.0260623 0.00049349555 -0.0013581002 -0.024104165 0.028436359
0.011255085 -0.065197855 0.012123552 -0.030116335 0.05266178 -0.0094626825 -0.0004951224 0.03070124
0.060203053 0.029532902 -0.029194497 0.02847761 0.027789462 0.028647797

fc2.weight f4 [30, 30]
00000000: 09e1 fb3d 23a9 043e db93 83bd d300 ae3d
00000010: 7d51 053b 8728 6e3d 6f5a 3cbc 1c5f 14be
00000020: 0b9a e93d b10e d8bd deb4 e33c 66d4 52bd
00000030: 2c13 983e e299 bc3d 5627 1cbc c241 d43d
00000040: 2af2 153e ffa3 6ebc 5a08 183e c4fc 95bd
00000050: bbf9 133e c352 32be e32d 8b3d 4e05 a8bc
00000060: 903e 393c 7281 843e d950 64be 65ae e1bd
00000070: 2c4c 7bbe 9b44 a83e e78c 14be 5eb8 083e
00000080: de10 d3bd 023c c7bb 4f01 4d3d 86d9 1f3e
00000090: d518 fcbd e4b6 003e a6ff f53d 5966 d1bd
000000a0: 50f7 3a3c 7a01 043e 4e70 11be ecf4 7d3e
000000b0: db69 afbd b544 e8bd f939 143e c8e7 173e
000000c0: 8423 873e eea2 083e eb26 e8bd 69a5 a9bc
000000d0: e50a 55be da05 6cbe a035 9f3e cbc9 94bd
000000e0: 5e62 253e aae9 b9bd 53e0 283d b59b 61bd
000000f0: 72bf 673d 1c2a 073e 7bc0 32bb 53d8 9abd
00000100: c93b 51bd bd1e 873d e21c 033e b770 0cbd
00000110: 78f5 2abe a9fa 853e a3cf 35be 056f 763d
00000120: 3e6e 813e 3f24 333e 315f 55bd 16f4 023e
00000130: 8ce2 8f3c 6a4a 983d fa91 be3d 2805 7ebb
00000140: 38a2 07bd 0b2b 32bd 4f27 8c3e 66a0 0c3d
00000150: 9b69 4ebe 24fc f5bd 2e75 fa3c beb9 063e
00000160: d83b 1c3e 95da 3e3e 7b7b 9dbd 53d5 0f3e
00000170: b9bc b5bd 5d21 fb3d 122a 2a3e 1ee8 f1bd
00000180: 0b50 433e f954 f13d c106 0cbe e114 17bd
00000190: 429d 8d3d 998c 953d e871 563c dc42 b4be
000001a0: 813d 123e 0ede c13c 4863 b1bd a353 02be
000001b0: 0d63 37bd ea2e c43d d565 0cbc 881d 54bd
000001c0: d999 83be e6df ad3e 4f7d dc3d 4dc5 0fbe
000001d0: 36f6 8a3e fb31 703d 2cdf 423e f4d8 e43d
000001e0: ca95 16be ef68 05be 33c7 243e 3bd4 3abc
000001f0: c911 83be adbc ef3d 0bcf 0c3d f7ad 423e
00000200: 73eb e53d 0380 843e 5a18 203e b0a4 213e
00000210: d1f8 983d eef2 97bd 1918 12bd 6a16 03be
00000220: 5e9d e7bd f95f a0bd c9ce c43c 74b5 cabd
00000230: bbb5 fa3d 71f3 833d 0b27 cfbe 696b 293e
00000240: c2e3 d9ba 8a2f 81bd 9eb4 30bd 0e52 d3bd
00000250: 9cdd a0ba ebf9 78be cd91 14be 68a5 b4bd
00000260: 708f ea3c 08e3 803d 44a2 70be f8d5 ba3c
00000270: da10 8cbd 2ebc 793e df96 373e 5dd1 ba3e
00000280: 2830 2b3e 8d45 833d db12 403e 020a 923c
00000290: 31ee a43e e118 5ebe 6327 57bd 0a60 e1bd
000002a0: 9c87 073e 1bbc 03be 2da2 fe3d 08ce e0bd
000002b0: aac8 3ebd c9e2 11be 4e9a 77bc d8d8 87be
000002c0: 1bea 95be 3ace 563d 8efd 573e a779 7a3b
000002d0: d8f7 adbd 00da d9bd edaf 9cbd acea e13d
000002e0: 859f d63d e431 a6bd 60c9 b93d e817 e8bd
000002f0: 845a 33be 1688 043e 41a7 c23d cf4c 93bd
00000300: 16f0 3fbd 7864 2cbe 3857 793e f200 edbd
00000310: 599d 05be 3b60 ad3b 50bb 313e c876 833c
00000320: 941d a5bd 8b8c 30be 8851 3e3e f7ec 0f3e
00000330: c230 e03d f18f 0fbe ea6b eebd 1ac4 0a3e
00000340: 061d 7b3e 77b3 513e 7288 273d bcc5 023d
00000350: 1749 0bbe d265 c0bc 2459 49bd 7187 ec3c
00000360: 596e 4d3d d8f8 abbd 5919 dabd 24c6 b13c
00000370: def0 06be 0df2 063d cc1a d2bd 8e06 673c
00000380: e545 7abc cab4 b1bc f09e a3bd a827 3d3e
00000390: 5938 eabc c64a 26bd 2f8c 40be b0d8 a23d
000003a0: 73f3 ce3d deb4 a43d 0cb3 543d 08fe bcbd
000003b0: 1d86 edbd f927 95bc d603 713d b96d 2ebe
000003c0: 63f3 9abd 0263 973d 1460 e5bc d2b5 05bd
000003d0: c7a1 1bbd 0469 913d 1d76 8dbb 75d7 1cbe
000003e0: 7ede c93c ec66 36be 8ac9 a03c 13b2 203e
000003f0: 5929 6abc 382c 2bbe 0260 793e ca7b 0c3c
0.122987814 0.12955146 -0.064246856 0.08496251 0.002034276 0.05814412 -0.01149617 -0.14489406
0.114063345 -0.10549677 0.027796205 -0.05147209 0.29702127 0.09209038 -0.009530863 0.10364105
0.1464316 -0.014565467 0.14846936 -0.07323602 0.14450733 -0.17414384 0.067958616 -0.020510342
0.01130642 0.2588001 -0.22296466 -0.11019591 -0.24540776 0.32864842 -0.14506875 0.1335158
-0.103059515 -0.0060801515 0.050050076 0.15610322 -0.12309424 0.12569767 0.12011652 -0.102245994
0.011411503 0.12891188 -0.14202997 0.24800462 -0.08565112 -0.1134123 0.1447524 0.14834511
0.26394284 0.13343403 -0.11335548 -0.020708757 -0.20804937 -0.23049107 0.310956 -0.072650515
0.16150805 -0.09077771 0.041229557 -0.055080134 0.05657906 0.13199657 -0.0027275372 -0.07560792
-0.051082406 0.0659766 0.12803987 -0.03428718 -0.16695201 0.261678 -0.17754988 0.06016447
0.2527942 0.17494296 -0.052092735 0.12788424 0.01756408 0.07436068 0.093051866 -0.0038760398
-0.03311369 -0.04349808 0.2737374 0.034332655 -0.20157473 -0.12010983 0.030573454 0.13156793
0.15257204 0.1863807 -0.07689568 0.1404622 -0.088738866 0.12262223 0.16617611 -0.11811851
0.19073503 0.117837854 -0.13674451 -0.036885146 0.0691476 0.073022075 0.013088681 -0.3520726
0.14281274 0.023665454 -0.086615145 -0.12727217 -0.044772197 0.09579261 -0.0085692005 -0.051785976
-0.25703314 0.33959883 0.10766088 -0.14040108 0.2714097 0.058641415 0.19030446 0.11174193
-0.14705577 -0.1302831 0.16091613 -0.011403139 -0.25599506 0.11705909 0.03437714 0.19011675
0.11226549 0.25878915 0.1563429 0.1578548 0.07469333 -0.07419382 -0.035667513 -0.12801519
-0.11309312 -0.07830805 0.024024384 -0.09897891 0.122416936 0.06442917 -0.40459475 0.1654488
-0.0016623663 -0.063078955 -0.043141 -0.10318385 -0.0012273076 -0.24314086 -0.14508744 -0.08820611
0.02863285 0.06293303 -0.234994 0.022807106 -0.06839152 0.24388191 0.17928647 0.36487857
0.16717589 0.0640975 0.18757193 0.017827038 0.32212976 -0.21689178 -0.052527796 -0.11004646
0.13235325 -0.12864725 0.12433276 -0.10976797 -0.046578087 -0.14246668 -0.015112473 -0.26532626
-0.2928017 0.052442767 0.21092817 0.0038219483 -0.08494538 -0.10637283 -0.07650743 0.11031088
0.10479645 -0.08114985 0.09071612 -0.11332685 -0.17514998 0.12942538 0.095045574 -0.071923845
-0.046859823 -0.16835201 0.24349678 -0.11572446 -0.13048305 0.0052910126 0.1735661 0.01604785
-0.08062282 -0.17241113 0.18585789 0.14055239 0.109468 -0.14019753 -0.11641677 0.1355137
0.2452279 0.20478617 0.04090161 0.031926855 -0.136021 -0.023486052 -0.049157277 0.028873177
0.050154064 -0.083970726 -0.10649366 0.021700926 -0.13177821 0.03294568 -0.10259017 0.014100684
-0.015275453 -0.021692652 -0.07989299 0.18472159 -0.028591322 -0.040598653 -0.18803476 0.07951486
0.10105028 0.0804231 0.051928565 -0.0922814 -0.11597846 -0.018207537 0.05884155 -0.17034043
-0.075659536 0.07391931 -0.027999915 -0.0326441 -0.03799608 0.07100108 -0.0043170587 -0.15316565
0.024642225 -0.17812699 0.019627351 0.1569293 -0.014292085 -0.16716087 0.2435303 0.0085744355

fc2.bias f4 [30]
00000000: 61ef 07be b032 22bd cf97 4f3e 05d7 0abe
00000010: 82c7 473e 1a9c 423e 4ead c2bc 65d2 88bd
00000020: d7c5 f0bd 5ab1 cf3d 19ad 40be 8fee 31be
00000030: 6bbc 19bd 2856 2cbd f62c a23d c9e0 d13d
00000040: 7b89 bdbc 0bf6 15bd 62dc 38be ad57 133e
00000050: f8af d6bd 5d65 253e 8566 023c 836a ca3d
00000060: 5a16 d73a 7a7e 3ebd 31c2 17bd 80e5 143e
00000070: 36a2 0d3e 5002 763c
-0.1327491 -0.03959912 0.20272754 -0.13558586 0.195097 0.1900486 -0.023764279 -0.066807546
-0.11756485 0.10141249 -0.18816032 -0.17376159 -0.037533205 -0.042074353 0.07918732 0.102479525
-0.023136845 -0.036611598 -0.1805282 0.14388914 -0.10482782 0.16151948 0.007959013 0.09883597
0.001640986 -0.046507336 -0.03705043 0.14540672 0.1383141 0.0150152

fc3.weight f4 [10, 30]
00000000: 13c5 7f3e cec8 1cbd 5b00 a03e 6f17 ecbe
00000010: 7284 023c a57e 7e3d 8619 92be 038e 93bc
00000020: 3aef b2be c400 37bd 4748 1f3e 3ad1 bd3d
00000030: 7457 1ebe 3b28 58be 3b94 823d 50cc 213e
00000040: f1fa 69be b389 363e fc69 a03e 47d7 acbd
00000050: dd7b 0abc 41e7 e13b de1b 84be 30c8 383e
00000060: 1969 c0bd abd7 dcbd df2a b13d 3e2b 9ebe
00000070: 9939 efbd 077b 5b3e dff9 49be c690 243e
00000080: 369d 43be 5fae 593e 2ebb 2cbe f7bd 6cbe
00000090: fd47 443d f11f 87bc 597d 36be 28c9 d23d
000000a0: ba07 02be 5414 9abd bf72 c2be 70f8 493e
000000b0: bad2 02be 79e3 0abe 9cfe ca3b dffd 22be
000000c0: cd19 783d 1bf5 03bc 9aaa 563e 0433 78be
000000d0: 6e51 073e 34f8 8abe b5ca 3abe 2e06 c43d
000000e0: fb50 6bbd bbbe b1be dc3f 6abd 09c2 7b3e
000000f0: 8888 3a3e fab0 333e 536e 89bc 5081 1abd
00000100: a991 76bd 46c5 663e 7bfe 443e 94c3 063e
00000110: 5815 8b3e a1b8 053e 5504 9bbd 7967 2e3d
00000120: 1081 153e 18b1 743e fefa 393e e366 60be
00000130: 6beb 27be 291f 2c3d cf8d cb3d c15e 0e3e
00000140: 05e5 783d a5cf 75be 1b54 00be bba9 7a3d
00000150: 4907 e53d 9604 f8bd c0a3 cb3d 3f00 2fbe
00000160: fe34 ac3d 51f1 cbbd 7cc6 bb3d b4d5 a8be
00000170: f9b2 393d 380f 4e3e 6f69 bd3d be24 1dbd
00000180: 5aab ad3d 7fa1 d8bd e2ab 143d 9e98 8d3d
00000190: a461 b8be 4618 ddbd 5d25 ac3d f79e 4abc
000001a0: a3be 28be 3185 0b3e 4fb0 2c3c 9d75 a8bd
000001b0: 6a34 98be 7e97 ea3d dec1 103e 8e92 d73d
000001c0: d66b 98be 22bb a5bd 166c 8d3e 96ca 81be
000001d0: 9861 1bbe 90aa 74be f761 abbd 4ea4 563e
000001e0: 99e7 293c a18f 96bd eca5 12bc d60d 033e
000001f0: 2f0a 303e 5c5a a93b 0cea 77bb 6a3c fd3d
00000200: f493 85be 932a 05bd 66d2 043e dd0f 213e
00000210: 4900 2fbd 7aab 843e 3774 39bc 01ac 2bbe
00000220: 53eb 5b3e 538b 68bb 5890 34bd 9c4e 6bbd
00000230: 2fb2 adbe 9233 3f3c 3932 62bd d8a0 3e3d
00000240: 72ae a5be fa3d efbc f8aa 75bd eb5a 933e
00000250: e981 f33a 54d6 78bd a954 bfbd 29aa 783e
00000260: f8d6 b83d e1dc 34bd 2c71 413c f99e 93bd
00000270: a288 b2bd 3eae 5fbc e72d 133e b1ae 9cbe
00000280: 1e38 d4bd 2834 a8bd 1fc9 f83d 49e5 7dbe
00000290: 23f9 bebd 106f 2b3d bdf9 c2be a17e d6bc
000002a0: bef4 82be 248f 21be 5476 1c3d 41cf 5a3e
000002b0: d4ed 61be bf7d 98bc 9ab3 843d 09bb 753e
000002c0: 949e 3ebe 4257 1c3e 9ecf 0a3e 79c7 0c3c
000002d0: 916a 34be c509 403e 2f3f 39bd 2431 2b3d
000002e0: 71d5 9b3e 9b33 a63e 6881 7e3d 1888 40bb
000002f0: 043d cbbe 8132 883c 8362 54bb a6e2 2fbe
00000300: e6fa 33be 8a43 2ebe 762b 0f3e c436 aa3e
00000310: e349 d4bb ea7e 30be 975a afbd b8c9 8cbe
00000320: b0c1 09be 2b90 88bd c138 3d3c fe62 123e
00000330: c362 83be df1d 00bd 56b8 1abe 77b2 a6be
00000340: c8d8 093e 35d0 fe3c a1d1 d23d 7a27 b2bd
00000350: f9a0 473e 56c4 2f3c 174b 3dbe 26e7 e1be
00000360: fef0 ec3d 9ea4 843d 9123 793e e27d 54be
00000370: 8b06 333e 6c8e cbbc 256a 003e 98f7 e13d
00000380: a840 3d3d 983c 623e 5c60 af3d abd5 453e
00000390: 1070 9cbc 3e92 ec3e c66c 76be 6f71 84be
000003a0: 508e 783c 39d0 c5be 1df9 603e b037 3a3e
000003b0: 66d4 b13d 2b89 19be 8e39 b93d d501 8cbe
000003c0: 71a0 483e dcbf 7a3e a60f 20be de01 afbd
000003d0: 8ba3 69bd 3a63 69be 5204 e1bc 5634 50bd
000003e0: 53d9 a7be f088 ef3d 1792 05be 31c9 023e
000003f0: 0128 97bc 3482 59be 5845 9d3d 59dd 84bd
0.24977522 -0.03827744 0.3125027 -0.46111628 0.007966148 0.062132496 -0.28535098 -0.018012052
-0.3494814 -0.044678465 0.15554915 0.092684224 -0.15463048 -0.21109097 0.06375929 0.15800595
-0.22849633 0.17825966 0.3133086 -0.084394984 -0.008452383 0.0068940227 -0.2580251 0.18045115
-0.09395046 -0.10783323 0.08650755 -0.30892366 -0.11680908 0.2143365 -0.19724225 0.16070852
-0.1910294 0.21257924 -0.16868278 -0.23119341 0.047920216 -0.016494723 -0.17821254 0.10292274
-0.1269826 -0.075234085 -0.3797817 0.19723678 -0.12775698 -0.13563336 0.0061949026 -0.15917157
0.06057148 -0.008054043 0.20963517 -0.24238211 0.13214657 -0.2714249 -0.18241389 0.09571491
-0.057450276 -0.34715828 -0.057189807 0.24585737 0.18216145 0.1754798 -0.01677624 -0.03772098
-0.060197506 0.22536191 0.19237702 0.13160545 0.2716472 0.13058712 -0.07569186 0.042579148
0.14600015 0.23895681 0.18162152 -0.21914248 -0.16398399 0.042021904 0.09939157 0.13903333
0.060765285 -0.24004991 -0.12532084 0.061197024 0.1118303 -0.1211025 0.09943342 -0.17089938
0.08408545 -0.09958137 0.09168717 -0.32975543 0.045336697 0.20122993 0.092486255 -0.03836512
0.08479948 -0.10577678 0.036296733 0.06913875 -0.36011994 -0.107956454 0.08405564 -0.012367002
-0.16478972 0.13625027 0.010540082 -0.08225558 -0.2972749 0.11454676 0.14136454 0.10526
-0.29769772 -0.080923334 0.27621526 -0.25349873 -0.15173948 -0.2389319 -0.08368295 0.20961115
0.010370159 -0.07351614 -0.008950692 0.12798247 0.17191385 0.0051682424 -0.0037828712 0.12365039
-0.26089442 -0.032511305 0.12970886 0.15728708 -0.04272488 0.25912076 -0.011319212 -0.16764833
0.21476488 -0.0035483434 -0.04408297 -0.057448015 -0.33925006 0.01167001 -0.055223677 0.04654011
-0.32359654 -0.029204357 -0.0599775 0.28780302 0.0018578145 -0.060751274 -0.093423195 0.24283661
0.09025377 -0.04415596 0.011806767 -0.07208056 -0.08717467 -0.013652382 0.14372979 -0.3060203
-0.10362266 -0.08213073 0.12147736 -0.24794497 -0.09324863 0.041853964 -0.3808116 -0.026183428
-0.25577348 -0.1577726 0.038198784 0.21368124 -0.2206338 -0.018614648 0.06479569 0.2399713
-0.1861518 0.15267661 0.13555762 0.00859248 -0.17618777 0.18753727 -0.045226272 0.04179491
0.3043628 0.32461247 0.06213513 -0.0029377993 -0.3969499 0.016625645 -0.003240735 -0.17176303
-0.17576179 -0.17017952 0.13981423 0.33244908 -0.0064785345 -0.17235914 -0.085622005 -0.2749765
-0.13452792 -0.06668123 0.011549176 0.14295575 -0.25661287 -0.031278487 -0.15109381 -0.32558033
0.13461602 0.03110514 0.1029389 -0.08698936 0.19495 0.0107279625 -0.18485676 -0.44121665
0.11569403 0.06476711 0.24329974 -0.20751145 0.17482965 -0.024848185 0.12540491 0.11033553
0.04620424 0.22093427 0.08563301 0.19319789 -0.019096404 0.46205324 -0.24064931 -0.25867793
0.015170649 -0.38635424 0.21970029 0.18185306 0.0868309 -0.14993732 0.09044181 -0.27345148
0.19592454 0.24487251 -0.1563097 -0.08545278 -0.057040732 -0.22791758 -0.02746788 -0.05083116
-0.32782993 0.11696041 -0.1304401 0.12772061 -0.018451693 -0.21241075 0.07679242 -0.06487531

fc3.bias f4 [10]
00000000: 54ca 2abd ea98 b53c 23d7 f13d d08c 213c
00000010: 393a e5bc 9b80 3d3e a551 81bb 0890 de3d
00000020: 274a 353e da07 df3d
-0.04169686 0.022167642 0.11808612 0.0098602325 -0.027981864 0.1850609 -0.0039465004 0.108673155
0.17704068 0.108901694
