train_result/weight_dic.pkl (torch, 101615 bytes, 12 tensors)

fc1.weight f4 [30, 784]
00000000: 1681 92bc 4ee9 8a3c a561 653c 55cc aa3a
00000010: e63a b1bc 9a0a d43c 9c2b d2bc 6555 233d
00000020: af55 a9bc 9d3c 9f3b 35c1 5f3c 09a4 203c
00000030: 2cfd 973c ff00 70ba 8c7a 89bc 7d0b 123a
00000040: cef7 a23c b84f fbbb b4e0 bf3c 6585 ac3b
00000050: f0ab 7fbc bd0f 0e3d cfa4 253d b421 1cbb
00000060: 098f 753c eea1 c5bb 2e6f e03c a1ff cfbb
00000070: 73e8 083d 4317 0d3d 33b6 37bc 5f30 053d
00000080: 4165 16bc f9d3 133d 7319 4fbc 6399 86bb
00000090: 0df7 5c3c 91fa 753c fa60 a7bc fdb5 0c3d
000000a0: 9e35 633b 80af 053d 49e4 173d 4900 613c
000000b0: 368c a33c 4ce6 af3c f94c 393c dd45 1a3d
000000c0: 8371 113c 6f9c 37bc e664 be3c a152 603c
000000d0: a4cc 94bc bf3f 90bb ed21 c7bc d7cc 0a3c
000000e0: e190 6a3c 1d82 083a 8772 32bc 7d07 543a
000000f0: 1fbf c9bc a75a 21bc d0b6 fc3c 6763 5abc
00000100: 8304 103d 3521 153d 6a32 d83c af24 7abb
00000110: 38b3 9bbc 5e7c 483b 5687 b13c 82b8 993c
00000120: 45ff 07bc 94f7 c5bc 01f9 adbc 139a 7fbc
00000130: 7177 95bc 0be9 42bb 1b95 8dbb 44d8 df3c
00000140: 0135 05bc c54c 06bc f1b8 223c 9fd5 74bb
00000150: 2210 61bb febf d43c b968 233d 14cc b63c
00000160: 44e7 903b 29c0 713c 7131 c9bc b497 d6bb
00000170: bc5d 8f3c e231 803c 3d32 55bc c5db f93b
00000180: b18a 9fbc 1fea 36ba 8c15 8d3b 025b a43c
00000190: c5b8 7a3c 3611 84bc e90a 7a3c 1cf6 e2ba
000001a0: 1d65 f83b b429 c43c 19a3 45bc e748 853c
000001b0: 016e 05bc f7bf 83bb 1f81 f7ba 06ee d73c
000001c0: 3286 f53c cd65 b8bc f2c3 dabc 86f6 853c
000001d0: 528d b83c 0ec1 c73c 29ba 163d 7ab0 b7bc
000001e0: af83 34bc 5132 2a3d e317 003c 5868 abbc
000001f0: 9736 213d 3afe aabc 7324 3abc 1d04 493a
00000200: 517d 433c 69b4 293d d3e4 133d fc7f f13c
00000210: eb22 65bc 32af 933c 33b8 143c 65ad ac3b
00000220: c355 273d b084 a93c 708e 813c 9489 92bb
00000230: 6a9f 8dbc 2f6c 8bbc fd42 b1ba 467a f13c
00000240: 01bf 143d b64a c43c bca6 84bc a049 e7bc
00000250: 9fab 1eba 6cc4 dcbb 6c1d 9b3c cf13 103d
00000260: 627a a9bb c696 ca3c 8604 c43c d236 063d
00000270: f166 4a3c 9253 efbc fe0d c7bb 7468 983b
00000280: 7cbb 5e3a 0c28 8fbc 6151 22bc bec3 423b
00000290: caf4 bcbc 67c8 4dbc c1cf 2a3c a9bd 273d
000002a0: 6d6f edba f655 babc fe19 c03c 1a37 a8bc
000002b0: 0e28 b03c cfcf 9cbc 6493 85bc 2d74 c9bc
000002c0: 5294 e0bc ede5 96bc c1a3 f0bc 872c d23c
000002d0: 5769 43bc 1ef3 2dbc 60c4 fa3b 1f99 8e3b
000002e0: 8d9c 8b3c e7d0 7d3c f5a2 36bb 3c36 b3bc
000002f0: a225 a93c c1ab 503c ab78 113c 3d0f 0b3a
00000300: 5d1b 45bc 08a3 aa3c 8695 acb9 8e7c 4f3b
00000310: 0920 7ebb 914e 1b3d 9218 d53c da22 843b
00000320: 5d35 063d f502 cabb 52c5 edbc c53f 89bb
00000330: 7036 d23b 0ef3 853c e79b e03b c8e4 21bd
00000340: ba8e 00b8 9806 a9bc 8c6b 12bd 7a19 9abc
00000350: bbba 5a3c 42e4 00bd 35e3 eabb 0421 c83c
00000360: 1115 7f3b c338 3ebb 6b32 3cbb 2658 ca3c
00000370: c3d1 1b3d 5c81 6d3b 98a7 d1bc 14ba 86bc
00000380: 06db a4bc 5e6e d83c 5aab c9bc d622 983c
00000390: e9ad 403c fa7b ce3c 6d37 5a3c 9d32 093c
000003a0: cd72 b63b 21fc 7bbc f98b 10bd 8c5d d9bc
000003b0: c13d 0f3c d481 1ebd 8ddc f4bc a54f 903b
000003c0: 9f7d a9bc 2e53 40bc 2550 d1bb 34c9 e0bc
000003d0: b318 a73b 73ee e3bc e1b6 273d 4ca4 8fbc
000003e0: 8db0 0d3d 033d 7bba e51f 2a3d dda9 09bc
000003f0: 2b18 0bbc 3228 033d 8ab5 d6bc fd1b 053d
-0.017883819 0.016956951 0.014000331 0.0013030866 -0.02163453 0.025883961 -0.02565556 0.03987636
-0.02067074 0.0048595206 0.013656904 0.009804734 0.018553339 -0.0009155422 -0.016782068 0.000557117
0.019893553 -0.0076694153 0.023422576 0.0052649253 -0.015604958 0.034682978 0.040440377 -0.00238238
0.0149877155 -0.0060312664 0.027396765 -0.006347612 0.033424806 0.034446012 -0.011212873 0.032516833
-0.009179414 0.036090825 -0.012640345 -0.0041076406 0.013486636 0.015013353 -0.020431984 0.034353245
0.003466941 0.032638073 0.037082944 0.013732978 0.019964319 0.021472119 0.011309856 0.037664283
0.008877161 -0.01120673 0.023241471 0.013691575 -0.018163987 -0.0044021304 -0.02430817 0.008471689
0.014316768 0.00052073767 -0.010891563 0.0008088274 -0.024627266 -0.009848273 0.03084889 -0.013329363
0.035160553 0.03640862 0.026391227 -0.0038168838 -0.019006357 0.0030591707 0.021670979 0.018764738
-0.008300607 -0.024165906 -0.021236898 -0.015600699 -0.01824543 -0.0029740955 -0.0043207533 0.027324803
-0.008130313 -0.008197014 0.009931789 -0.0037358773 -0.0034341891 0.025970455 0.039894793 0.022314109
0.0044221003 0.014755287 -0.024559708 -0.006548846 0.01750075 0.015648786 -0.013012466 0.0076250755
-0.019475313 -0.0006977636 0.004305547 0.020062927 0.015302842 -0.016121488 0.01526139 -0.0017315778
0.007580413 0.023945667 -0.012062811 0.016270114 -0.008143903 -0.0040206867 -0.0018883086 0.026358616
0.029971216 -0.02250948 -0.026704762 0.016352903 0.022528324 0.024384048 0.03679863 -0.022423018
-0.011017724 0.04155189 0.007818195 -0.020923778 0.0393587 -0.020873178 -0.011361229 0.00076681544
0.011931733 0.04143182 0.036106896 0.029479973 -0.013985376 0.018027876 0.00907712 0.0052696937
0.040853273 0.020693153 0.01581499 -0.004471967 -0.017287929 -0.01701936 -0.0013523992 0.02947725
0.036314968 0.023961406 -0.016192786 -0.02823335 -0.0006052795 -0.0067372825 0.018934928 0.03517514
-0.00517206 0.024730098 0.023927938 0.032767124 0.012353645 -0.029214654 -0.006074666 0.0046511237
0.0008496565 -0.01747515 -0.009907098 0.0029718722 -0.023065943 -0.012559987 0.010425509 0.04095236
-0.0018114873 -0.022746067 0.023449894 -0.020534087 0.021503475 -0.01914206 -0.016305633 -0.02459153
-0.027414475 -0.018420184 -0.029374959 0.025655998 -0.01192697 -0.010617046 0.0076528043 0.0043517496
0.017042423 0.015491701 -0.0027868126 -0.021876447 0.020647828 0.012736262 0.008878867 0.00053047
-0.01203045 0.020829692 -0.000329178 0.0031659934 -0.0038776419 0.037916724 0.026012693 0.004032475
0.032765735 -0.0061649033 -0.029024754 -0.00418851 0.006415181 0.01635125 0.0068545225 -0.039524823
-3.0650503e-05 -0.020633027 -0.035747096 -0.018810976 0.013350184 -0.031467684 -0.0071681985 0.024429806
0.0038922469 -0.0029025532 -0.0028716575 0.024700236 0.03804184 0.0036240434 -0.02559261 -0.01644615
-0.02012397 0.026419815 -0.02461784 0.018571299 0.011760213 0.025205601 0.013318879 0.008373884
0.0055678845 -0.015379936 -0.03528974 -0.026533864 0.008742751 -0.038698032 -0.029890323 0.0044040256
-0.020689784 -0.011738582 -0.006387728 -0.027439691 0.00509938 -0.027823662 0.04094589 -0.017534398
0.0345922 -0.00095839816 0.041534323 -0.008402315 -0.008489649 0.032020755 -0.026209611 0.032497395

fc1.bias f4 [30]
00000000: f24f a73b 1af9 fcbb a0d8 67bb 21d9 463c
00000010: d155 2c3d 8b7f a33c 6e68 be3c ff3e ec3b
00000020: 6952 ba3c bc4b f7bb a679 03bc fa53 69bd
00000030: c2d1 cbbb 22f8 cc3c 36d9 acbc 58a2 be3c
00000040: 92f0 23bd 903a 01bd 2fa4 503d 377d b23c
00000050: 7673 023d f0da 75bc cb23 02bd 4c6d 793b
00000060: 5e54 4ebc 607e 6f3c 2937 903c ea26 14bd
00000070: 9534 a13c 2474 f73a
0.005105966 -0.007720125 -0.0035376921 0.0121367285 0.04207403 0.019958278 0.023243155 0.007209658
0.022744374 -0.00754687 -0.008024609 -0.056964852 -0.0062200734 0.025020663 -0.021099668 0.02327077
-0.040024348 -0.03154999 0.050937828 0.021788223 0.031848393 -0.015005812 -0.031772416 0.003805953
-0.012593357 0.0146175325 0.017604427 -0.036169924 0.019678393 0.0018879217

fc2.weight f4 [30, 30]
00000000: 83da 12be 9368 63bc 2fb8 653d 5152 4b3e
00000010: e35d e2bd 9e54 b5bd da87 6bbc c532 c63d
00000020: 226d 2c3d 81b5 2a3e 94d4 93bd 30f9 b8be
00000030: 48fc c83c 2c64 3cbb c9da e33e a3f4 493d
00000040: 0f49 62bc cf72 f2bd 953e e7bd e88e 393d
00000050: eaa4 4d3e 76cd 38be 015f 6abd e895 52be
00000060: ab81 26be bc89 b53e 38b5 f53c f26f 2cbe
00000070: 8442 1c3e d333 313e e0ae 93bb 003f f93d
00000080: 3ad0 16bd 3975 9dbc ae48 0bbe 1ed0 1ebe
00000090: b367 63be 1d0d fabc 4896 943c 9770 dfbd
000000a0: d0bb 7abd aa30 4abe bb3c 86bd bc29 8d3d
000000b0: 0268 6a3c a01c 11be 80aa 553b 406b 7dbd
000000c0: bebf 363e 9214 eb3c 3f8c d43b 17b2 2f3e
000000d0: d16d e7bc d3fb 1abe bc85 ed3d ae4d b93d
000000e0: b068 583c b034 323e aee0 b93c c8f0 fdbd
000000f0: 46f4 1fbe 5c1e 01be a6d7 41bb 1cc1 b13c
00000100: 6f90 903d fbf2 73bd 53a0 c83d 4369 a0bd
00000110: 7814 be3d 9499 8c3d 8ba7 9fbc 618e 99be
00000120: 1480 e6bd 283a be3d e89e a73e 1ba6 ed3d
00000130: 0439 e53d 91dc b0bc 57a2 0d3e e334 09be
00000140: f906 833e a325 8cbe b1ff 59be 18e6 093e
00000150: 86b5 9e3d ee3b f93d 7b36 20be 1858 023e
00000160: 0b13 a6be e353 3e3e 75a9 a6bd 5982 10be
00000170: 45a3 5f3e b95e b4bd 6c20 593e d7e7 a9bd
00000180: ddf9 3c3d 146d c63d 3c9b 57bd ff23 2bbe
00000190: 2df8 113e 0faf 723e 8619 8d3d 56ab 143e
000001a0: c0a6 373e 3ddd 2ebe 9d1d e83d 31bd 19bc
000001b0: a9e0 b8bd 2469 eb3d 458b 573e a3ad 6e3e
000001c0: d951 fd3d 5162 fe3d 2888 153e b84f 36bd
000001d0: ee61 0b3e bf78 82bc dae0 97be 85e7 3f3e
000001e0: bed6 06be a9f7 2cbd eedb 24be c82f 7c3e
000001f0: bbd8 cdbb d919 c43d 4bf5 c63d 22b6 ab3b
00000200: fc57 b33d 0cd3 c63d b8be dc3d f5d0 21bd
00000210: 7122 bdbd 622e 70bc 1a41 353e 4aff 21be
00000220: ed4f 133e 3ac6 24bb c2d3 5abe 11ff f93d
00000230: 77fa 58be 725e 04be 4ffe 6fbd e8df a23e
00000240: 97fa e1bd 3cdf 543e 517f 0fbe c465 a13d
00000250: 266e 333e 2abf 1fbe 58cf e73d 0850 ad3c
00000260: ba5a f2bd 2932 82bd 06f1 203d c868 843d
00000270: 6f04 023e 8484 3a3e 3f78 90bd 79ad a23d
00000280: acd7 c0bd 0f1c 853d 37ab 2fbe 38c6 08bd
00000290: b65b 3abc c6cc 9abe 1c2d 243d c0da 3d3b
000002a0: 2f98 353e 74e9 2c3e 0032 6c3d 649c bc3e
000002b0: ff03 843d 2fcb 06be f452 1abd 5cf0 e03d
000002c0: acc3 00bd f8c5 33bd 1f0d afbe dec1 cfbd
000002d0: ec3d 92bd 0068 6c39 4dc5 193e bc9f 7bbe
000002e0: 0e2b 0d3d 1b01 30be b751 403e 5b9b 9bbd
000002f0: 82c8 143e 5121 9bbd e4d8 483d 090e 25be
00000300: 055c c8bd a5f2 283c 21d6 f3be f3b2 9ebe
00000310: ca41 fd3d 1110 113e 0a39 8cbe 8043 7e3c
00000320: 801b 1dbe 10ff 753e 691d 1dbe 2aa9 3abd
00000330: 5254 bb3d 61fa 7dbc 62d5 353e 0cff 07be
00000340: 6c43 973d 4b0a 73bd aef9 983d 9045 0e3e
00000350: 5edf ecbd e6d7 f3bc 1caf 943e 5474 093e
00000360: 4e3b eb3d 0692 2ebc 7dc2 5c3d b877 b9bd
00000370: 90a0 f13d f137 0abb feb4 c2bd aa63 073e
00000380: 1fc4 9cbe a1b0 04be 621e b93c ef33 81bc
00000390: 9981 f2bd 9e2a bebd 8a83 42be 0b10 a83e
000003a0: a628 823e c337 983e 9f4a 9f3d 3d36 5ebd
000003b0: a200 b1bd 2b6d 0c3e b1c4 8fbd 31b4 0dbc
000003c0: 6821 2d3d f6d7 173e 7051 b9bd 79c5 9bbd
000003d0: 6c3d 2cbe b4e0 2d3d d31c 49be 9047 b8bc
000003e0: 9c78 babd 1e4f 37be 9888 6abd e5b0 07be
000003f0: b0db 4abc 2c0e 073e 2c26 efbc 3e15 1dbe
-0.14341168 -0.013879913 0.056083854 0.1985562 -0.11053064 -0.0885403 -0.014375651 0.09677652
0.042096265 0.16670801 -0.072182804 -0.36127615 0.02453436 -0.002874623 0.44502857 0.04930557
-0.013811364 -0.11838304 -0.112912335 0.0453023 0.20082441 -0.18047127 -0.05721951 -0.20564997
-0.16260402 0.35456645 0.029993638 -0.16839579 0.15259749 0.17304926 -0.0045069307 0.121702194
-0.036819674 -0.019220935 -0.13601944 -0.15509078 -0.22207527 -0.030523831 0.018138066 -0.10910147
-0.06121427 -0.19745126 -0.06554552 0.06892726 0.014307024 -0.14171076 0.0032602847 -0.06186986
0.17846581 0.028696332 0.006486445 0.1715778 -0.028250607 -0.15135126 0.115977734 0.09048019
0.013208553 0.17402911 0.022690143 -0.12399441 -0.15620527 -0.12609237 -0.0029578 0.021698527
0.070587985 -0.059557896 0.097962044 -0.07832577 0.09281248 0.0686523 -0.01948907 -0.2999144
-0.11254898 0.09288436 0.32738423 0.11603948 0.111925155 -0.02158955 0.13831459 -0.13399081
0.25591257 -0.27372465 -0.21288945 0.1346668 0.077494666 0.12169634 -0.15645783 0.12728918
-0.32436404 0.18586688 -0.0813779 -0.14112224 0.21839626 -0.088071294 0.21203774 -0.08296173
0.046136726 0.09688774 -0.052638277 -0.1671295 0.14254828 0.23699592 0.06889634 0.14518484
0.17934704 -0.17076583 0.11333773 -0.009383486 -0.090272255 0.11494663 0.21049221 0.23308425
0.12369127 0.12421096 0.1460272 -0.04450962 0.13611576 -0.015926717 -0.29663736 0.18740661
-0.13167855 -0.042228375 -0.16099522 0.24627602 -0.00628194 0.095752425 0.09714755 0.005240218
0.08757016 0.09708223 0.10778564 -0.039505918 -0.09235085 -0.014659496 0.17700616 -0.15820041
0.14385958 -0.0025142566 -0.21369842 0.12206853 -0.21189295 -0.12926653 -0.058592137 0.31811452
-0.11034124 0.20788282 -0.14013411 0.078807384 0.17522487 -0.15600267 0.113188446 0.021156326
-0.11833711 -0.063572235 0.039292358 0.06465298 0.12697004 0.18214613 -0.07054185 0.079432435
-0.09416136 0.064994924 -0.17155157 -0.03339216 -0.011374405 -0.30234355 0.040082082 0.0028969496
0.17733835 0.1688593 0.05766487 0.36838067 0.06446075 -0.13163446 -0.037676767 0.10983345
-0.031436607 -0.04388997 -0.34189698 -0.10144399 -0.07140717 0.00022545457 0.1501667 -0.24572653
0.03446489 -0.17187922 0.18781172 -0.07597991 0.14529613 -0.07574714 0.049034968 -0.16118635
-0.09783176 0.010311757 -0.47624305 -0.30995902 0.12366064 0.14166285 -0.27387267 0.015519023
-0.15342522 0.2402308 -0.1534325 -0.045571484 0.09146942 -0.0155015895 0.1775718 -0.13280886
0.073859066 -0.059335988 0.074694976 0.13893723 -0.115660414 -0.029766034 0.29039848 0.13423282
0.11485921 -0.010654932 0.053896416 -0.09056038 0.11798203 -0.0021090473 -0.09507178 0.13221613
-0.3061838 -0.12958004 0.022597495 -0.015771834 -0.11841125 -0.09285472 -0.1899549 0.3282474
0.25421637 0.29730043 0.07777905 -0.054250944 -0.08642699 0.1371352 -0.07019938 -0.008648918
0.042268187 0.14828476 -0.09048736 -0.07606024 -0.16820306 0.04245062 -0.19639902 -0.022495061
-0.09105036 -0.17901275 -0.057259172 -0.13251074 -0.012381479 0.13189 -0.029193006 -0.15340135

fc2.bias f4 [30]
00000000: 2018 12be 41a9 b03d f6cd d03c 1bfb e7bd
00000010: bde8 4a3e a6ff b9bd 3a87 8c3d 9aa4 073e
00000020: f8c2 bdbb c033 e9bd 49e8 bfbd 1003 52bb
00000030: 5e29 6bbe 665d 6fbd 9723 40bc 2007 2f3d
00000040: 5bc4 d03d 416f 12be 1b75 80bd 1ea3 2b3e
00000050: 5190 58bd 02eb 72be 5b0a c4bd 0085 253e
00000060: ef62 5abd dd23 19be e14f 003e f0e6 7f3d
00000070: 446a 88bd 3668 3b3d
-0.14267015 0.086260326 0.025488835 -0.113271914 0.19815345 -0.09081964 0.0686173 0.13246384
-0.0057910644 -0.11386824 -0.09370477 -0.0032045282 -0.22964999 -0.05843868 -0.011727235 0.042731404
0.10193702 -0.14300252 -0.06272336 0.16761443 -0.052872006 -0.23722461 -0.09572288 0.16164017
-0.053317007 -0.14955087 0.12530471 0.0624761 -0.066608936 0.04575368

fc3.weight f4 [10, 30]
00000000: 6cd4 b2be 475d aa3e ff65 12be e9ba 633e
00000010: 61db 77be 2071 183e b5bb a8be b990 513e
00000020: fe12 21bd badc 01bd 2b19 99be f7b6 3b3d
00000030: ae29 00be 9ce2 1c3e c028 3abe 6d34 803d
00000040: 29af 1dbd c4bc dcbe 316c 133e a6ae 833e
00000050: 045d 82be c454 ba3d a961 90bd 70da e0bd
00000060: f05d 87be 6aa1 debc 7367 dfbd e0e0 1ebe
00000070: bf30 a0bc 6e9f 1b3e 732a 32bd 1765 2abd
00000080: b09f 16be 54d6 413e 15f9 a0be 063b cebe
00000090: 558c 073e bf34 cdbe 0e5c 783d 83f1 23be
000000a0: c8a4 a5be e95c 7fbc 558f e93c 4d10 3abe
000000b0: 1141 8d3d b136 b6be 8cda 473d 1af9 793e
000000c0: cc59 cabe 9ecb 99be e91f 6abc dd30 593e
000000d0: 4263 0d3e 03e9 e0be fec6 c63d 0b72 b2be
000000e0: d637 29be e068 cfbe f077 1bbe 4162 1a3e
000000f0: 821f ac3d a9de 70be 4927 723e 9d7f 703c
00000100: 4e07 e23d 1fc3 c1bc 9982 1dbe b796 f53c
00000110: 1bda 22bd 768b c03d ac32 cf3c c4fe bfbe
00000120: 871c 16be 0816 dabd 81cf 733e ecbf 2f3e
00000130: d868 f8bd 627f 933d 197d e83c e665 b33e
00000140: e143 87be 9249 793e e8e1 05be deca 093d
00000150: d231 17be fa7c 02bf 874b a1bd 9587 a73b
00000160: 27ec e4bd cebc 13be e5ee 833e cc58 88be
00000170: 7c65 8d3e 482f 773e bfe4 ae3d 46ba 29bf
00000180: 2447 15be 38dd 3ebe fcab fa3d 8504 613e
00000190: fc30 423d 6d45 35be cb1d 1b3e 0491 e4bc
000001a0: 1bb7 59be e45a 52be 5ce4 24be 23a2 5cbe
000001b0: 50e2 143e d9e4 70be 0760 c63d 0af2 3abe
000001c0: acaf 4e3e 7960 2abe d186 b2be bca8 3cbd
000001d0: 8842 2d3e c6c2 6abe 978b 293e d070 1f3e
000001e0: 36ed 71be d413 03be d856 1bbe 8953 95be
000001f0: f3e9 cbbd 879a ac3d e634 0a3e 4cc4 4e3e
00000200: 4d98 cc3d 2f90 d2be b201 81be a880 0c3c
00000210: 21b6 1fbe 7da5 17be c8a6 c9be 1905 e5be
00000220: 37f3 fcbd 3bfa 133d b67b 6b3e be32 5b3e
00000230: d056 303e 998b 1fbe 9724 1dbe 86c7 0f3d
00000240: 9408 0a3d f8a2 50bd c5a7 83bd 4cf5 b03e
00000250: a5e8 92bd 27fc bfbe e2cc 0e3e ed50 90bd
00000260: 6f36 35bd 3e6d febd b1e6 6ebe f275 2abf
00000270: 3c27 88be 5be7 53be 91a9 abbd c759 773e
00000280: 5017 c7be 7360 423e 3f3c 5abd 0a62 b63d
00000290: 18f7 ebbe 6c70 1dbc da2a 48be 48d1 fe3c
000002a0: cfb0 643e 4da2 adbe 07c2 c6be 03ee d83c
000002b0: 1e42 60bd f04c ab3d 5d39 033e 0ca6 183e
000002c0: 3dc8 213e 7916 243e feda 28be ca83 4d3e
000002d0: 668a 02bf 840d fbbe 61ff c3bd b339 653e
000002e0: ffc9 36be 3008 d7bd 6bef 993c 20e0 473e
000002f0: 189d e5bd f5bd 7c3d f0bb 5bbe b615 29bd
00000300: 951e 0c3d 82c1 9e3c fe10 6d3e 20d2 2f3d
00000310: c498 053e f458 5e3e 2b59 3bbd 6590 b2be
00000320: a9e9 03bf aeb7 273e 54d4 6cbe fa13 6e3e
00000330: 2238 79be 9636 fc3d 6339 3ebe 2184 133e
00000340: e669 c6bd 22c1 94be 8d04 0e3e 5b87 a2bd
00000350: 2789 1e3d 2f64 9cbe 6411 813e 4537 80bd
00000360: 63e2 aa3e 9bf5 fdbd 1561 6a3d 584a 1fbf
00000370: f606 a7bd c3ac c3bd 9d36 77bb f553 b1bd
00000380: a16d cd3d ff64 d63e 5ac7 b7be c3b6 89be
00000390: 0381 9bbd 8eb9 173e e384 0f3c 05ee 393e
000003a0: b72c 44be 900a 93bd 918e a3bd a627 febe
000003b0: 81d3 013e 8769 b1bd 602f 3bbe a1f1 d23d
000003c0: 9a4b c0bc 2100 fabd 415b 8dbd 284c 7abe
000003d0: 674a 71be 0790 03be 2f39 95be 1eff a2be
000003e0: 484c 1dbe d875 f53d 3a0b 0abe fc73 1a3d
000003f0: fced a63d 5def cdbd 0f47 58bd 51ad 4cbe
-0.3492769 0.3327429 -0.14296721 0.2223927 -0.2420478 0.14886904 -0.3295571 0.20465364
-0.039324753 -0.031704642 -0.29902014 0.045828786 -0.125159 0.1532082 -0.18179607 0.062599994
-0.038497124 -0.43112767 0.1439674 0.25719184 -0.2546159 0.09098199 -0.07049877 -0.10979164
-0.26438856 -0.027176578 -0.10908403 -0.1551547 -0.019554494 0.15197536 -0.043497514 -0.041600313
-0.14709353 0.18929416 -0.31440035 -0.40279406 0.13237126 -0.40079305 0.060634665 -0.16010098
-0.3235228 -0.015586116 0.028510729 -0.18170281 0.06897176 -0.355886 0.048792407 0.24411431
-0.39521635 -0.3003816 -0.014289835 0.21210046 0.13807395 -0.43927774 0.097059235 -0.34852633
-0.16525206 -0.405097 -0.15182471 0.15076543 0.08404447 -0.23522438 0.23647799 0.014678863
0.110365495 -0.023652611 -0.1538185 0.029979093 -0.039758783 0.094016 0.025292717 -0.37499058
-0.1465932 -0.106487334 0.23809625 0.17163056 -0.12129372 0.07202031 0.028379964 0.3503868
-0.26418975 0.24344471 -0.13074458 0.033640735 -0.14765099 -0.5097195 -0.07875734 0.005112598
-0.11177855 -0.14427492 0.257682 -0.26630247 0.2761649 0.2413913 0.085397236 -0.66299856
-0.14577919 -0.18639076 0.12239835 0.2197438 0.047409996 -0.17702265 0.15148084 -0.02790118
-0.21261255 -0.20542485 -0.16102737 -0.21546225 0.14539456 -0.23524798 0.096862845 -0.18256393
0.20184201 -0.16638364 -0.34868482 -0.046059355 0.16919911 -0.22925863 0.16557156 0.15570378
-0.23625645 -0.12800533 -0.15169847 -0.29165295 -0.09956732 0.08427911 0.13496742 0.20192069
0.099899866 -0.41125628 -0.25196606 0.008575596 -0.1559682 -0.14809223 -0.39385056 -0.44730452
-0.12351077 0.03612731 0.2299641 0.21406075 0.17220616 -0.15580596 -0.15345989 0.03510239
0.033699587 -0.05093667 -0.06428484 0.34562147 -0.0717328 -0.37497064 0.13945344 -0.07046685
-0.044241365 -0.1242318 -0.2333019 -0.6658622 -0.26592433 -0.20693724 -0.083819516 0.24155341
-0.38884974 0.18982105 -0.05328011 0.08905418 -0.46086955 -0.009609323 -0.19547597 0.031105652
0.22333072 -0.33912888 -0.38819906 0.02648068 -0.054750554 0.08364284 0.12814851 0.14907092
0.15799041 0.16024198 -0.16489789 0.20069805 -0.5099243 -0.4903375 -0.09570194 0.22385292
-0.17850493 -0.104996085 0.018790921 0.1951909 -0.11211604 0.061704595 -0.21458411 -0.04128047
0.034208853 0.019379381 0.23151013 0.042925 0.13046557 0.2171362 -0.045739334 -0.3487579
-0.5152841 0.16378662 -0.23127872 0.23249808 -0.24337819 0.12315099 -0.18576579 0.14405872
-0.09688167 -0.290536 0.13868923 -0.07935973 0.038705017 -0.30545184 0.2520858 -0.06260542
0.33375844 -0.12400361 0.05722149 -0.62222815 -0.081556246 -0.09554436 -0.003772176 -0.08658592
0.10030676 0.4187393 -0.3589428 -0.2689725 -0.075929664 0.14816877 0.00875971 0.18157203
-0.19157682 -0.07179749 -0.07986177 -0.49639624 0.12678339 -0.08662706 -0.18279791 0.10299993
-0.02347355 -0.12207056 -0.06902171 -0.24443114 -0.23563538 -0.12847911 -0.2914519 -0.31835264
-0.1536113 0.119853675 -0.13480845 0.037708268 0.08150861 -0.100554205 -0.05280214 -0.1998799

fc3.bias f4 [10]
00000000: 35a3 d6bd 32da 55be c9f7 723d 619b d53c
00000010: 8cb7 373e 5aec ecbc b780 a13d 0b45 b73d
00000020: 9f3d 323e 6e88 963d
-0.10480348 -0.20884016 0.059318338 0.026075067 0.17941111 -0.028921295 0.078858785 0.08948716
0.17406319 0.07350241

fc1.weight f4 [30, 784]
00000000: 1681 92bc 4ee9 8a3c a561 653c 55cc aa3a
00000010: e63a b1bc 9a0a d43c 9c2b d2bc 6555 233d
00000020: af55 a9bc 9d3c 9f3b 35c1 5f3c 09a4 203c
00000030: 2cfd 973c ff00 70ba 8c7a 89bc 7d0b 123a
00000040: cef7 a23c b84f fbbb b4e0 bf3c 6585 ac3b
00000050: f0ab 7fbc bd0f 0e3d cfa4 253d b421 1cbb
00000060: 098f 753c eea1 c5bb 2e6f e03c a1ff cfbb
00000070: 73e8 083d 4317 0d3d 33b6 37bc 5f30 053d
00000080: 4165 16bc f9d3 133d 7319 4fbc 6399 86bb
00000090: 0df7 5c3c 91fa 753c fa60 a7bc fdb5 0c3d
000000a0: 9e35 633b 80af 053d 49e4 173d 4900 613c
000000b0: 368c a33c 4ce6 af3c f94c 393c dd45 1a3d
000000c0: 8371 113c 6f9c 37bc e664 be3c a152 603c
000000d0: a4cc 94bc bf3f 90bb ed21 c7bc d7cc 0a3c
000000e0: e190 6a3c 1d82 083a 8772 32bc 7d07 543a
000000f0: 1fbf c9bc a75a 21bc d0b6 fc3c 6763 5abc
00000100: 8304 103d 3521 153d 6a32 d83c af24 7abb
00000110: 38b3 9bbc 5e7c 483b 5687 b13c 82b8 993c
00000120: 45ff 07bc 94f7 c5bc 01f9 adbc 139a 7fbc
00000130: 7177 95bc 0be9 42bb 1b95 8dbb 44d8 df3c
00000140: 0135 05bc c54c 06bc f1b8 223c 9fd5 74bb
00000150: 2210 61bb febf d43c b968 233d 14cc b63c
00000160: 44e7 903b 29c0 713c 7131 c9bc b497 d6bb
00000170: bc5d 8f3c e231 803c 3d32 55bc c5db f93b
00000180: b18a 9fbc 1fea 36ba 8c15 8d3b 025b a43c
00000190: c5b8 7a3c 3611 84bc e90a 7a3c 1cf6 e2ba
000001a0: 1d65 f83b b429 c43c 19a3 45bc e748 853c
000001b0: 016e 05bc f7bf 83bb 1f81 f7ba 06ee d73c
000001c0: 3286 f53c cd65 b8bc f2c3 dabc 86f6 853c
000001d0: 528d b83c 0ec1 c73c 29ba 163d 7ab0 b7bc
000001e0: af83 34bc 5132 2a3d e317 003c 5868 abbc
000001f0: 9736 213d 3afe aabc 7324 3abc 1d04 493a
00000200: 517d 433c 69b4 293d d3e4 133d fc7f f13c
00000210: eb22 65bc 32af 933c 33b8 143c 65ad ac3b
00000220: c355 273d b084 a93c 708e 813c 9489 92bb
00000230: 6a9f 8dbc 2f6c 8bbc fd42 b1ba 467a f13c
00000240: 01bf 143d b64a c43c bca6 84bc a049 e7bc
00000250: 9fab 1eba 6cc4 dcbb 6c1d 9b3c cf13 103d
00000260: 627a a9bb c696 ca3c 8604 c43c d236 063d
00000270: f166 4a3c 9253 efbc fe0d c7bb 7468 983b
00000280: 7cbb 5e3a 0c28 8fbc 6151 22bc bec3 423b
00000290: caf4 bcbc 67c8 4dbc c1cf 2a3c a9bd 273d
000002a0: 6d6f edba f655 babc fe19 c03c 1a37 a8bc
000002b0: 0e28 b03c cfcf 9cbc 6493 85bc 2d74 c9bc
000002c0: 5294 e0bc ede5 96bc c1a3 f0bc 872c d23c
000002d0: 5769 43bc 1ef3 2dbc 60c4 fa3b 1f99 8e3b
000002e0: 8d9c 8b3c e7d0 7d3c f5a2 36bb 3c36 b3bc
000002f0: a225 a93c c1ab 503c ab78 113c 3d0f 0b3a
00000300: 5d1b 45bc 08a3 aa3c 8695 acb9 8e7c 4f3b
00000310: 0920 7ebb 914e 1b3d 9218 d53c da22 843b
00000320: 5d35 063d f502 cabb 52c5 edbc c53f 89bb
00000330: 7036 d23b 0ef3 853c e79b e03b c8e4 21bd
00000340: ba8e 00b8 9806 a9bc 8c6b 12bd 7a19 9abc
00000350: bbba 5a3c 42e4 00bd 35e3 eabb 0421 c83c
00000360: 1115 7f3b c338 3ebb 6b32 3cbb 2658 ca3c
00000370: c3d1 1b3d 5c81 6d3b 98a7 d1bc 14ba 86bc
00000380: 06db a4bc 5e6e d83c 5aab c9bc d622 983c
00000390: e9ad 403c fa7b ce3c 6d37 5a3c 9d32 093c
000003a0: cd72 b63b 21fc 7bbc f98b 10bd 8c5d d9bc
000003b0: c13d 0f3c d481 1ebd 8ddc f4bc a54f 903b
000003c0: 9f7d a9bc 2e53 40bc 2550 d1bb 34c9 e0bc
000003d0: b318 a73b 73ee e3bc e1b6 273d 4ca4 8fbc
000003e0: 8db0 0d3d 033d 7bba e51f 2a3d dda9 09bc
000003f0: 2b18 0bbc 3228 033d 8ab5 d6bc fd1b 053d
-0.017883819 0.016956951 0.014000331 0.0013030866 -0.02163453 0.025883961 -0.02565556 0.03987636
-0.02067074 0.0048595206 0.013656904 0.009804734 0.018553339 -0.0009155422 -0.016782068 0.000557117
0.019893553 -0.0076694153 0.023422576 0.0052649253 -0.015604958 0.034682978 0.040440377 -0.00238238
0.0149877155 -0.0060312664 0.027396765 -0.006347612 0.033424806 0.034446012 -0.011212873 0.032516833
-0.009179414 0.036090825 -0.012640345 -0.0041076406 0.013486636 0.015013353 -0.020431984 0.034353245
0.003466941 0.032638073 0.037082944 0.013732978 0.019964319 0.021472119 0.011309856 0.037664283
0.008877161 -0.01120673 0.023241471 0.013691575 -0.018163987 -0.0044021304 -0.02430817 0.008471689
0.014316768 0.00052073767 -0.010891563 0.0008088274 -0.024627266 -0.009848273 0.03084889 -0.013329363
0.035160553 0.03640862 0.026391227 -0.0038168838 -0.019006357 0.0030591707 0.021670979 0.018764738
-0.008300607 -0.024165906 -0.021236898 -0.015600699 -0.01824543 -0.0029740955 -0.0043207533 0.027324803
-0.008130313 -0.008197014 0.009931789 -0.0037358773 -0.0034341891 0.025970455 0.039894793 0.022314109
0.0044221003 0.014755287 -0.024559708 -0.006548846 0.01750075 0.015648786 -0.013012466 0.0076250755
-0.019475313 -0.0006977636 0.004305547 0.020062927 0.015302842 -0.016121488 0.01526139 -0.0017315778
0.007580413 0.023945667 -0.012062811 0.016270114 -0.008143903 -0.0040206867 -0.0018883086 0.026358616
0.029971216 -0.02250948 -0.026704762 0.016352903 0.022528324 0.024384048 0.03679863 -0.022423018
-0.011017724 0.04155189 0.007818195 -0.020923778 0.0393587 -0.020873178 -0.011361229 0.00076681544
0.011931733 0.04143182 0.036106896 0.029479973 -0.013985376 0.018027876 0.00907712 0.0052696937
0.040853273 0.020693153 0.01581499 -0.004471967 -0.017287929 -0.01701936 -0.0013523992 0.02947725
0.036314968 0.023961406 -0.016192786 -0.02823335 -0.0006052795 -0.0067372825 0.018934928 0.03517514
-0.00517206 0.024730098 0.023927938 0.032767124 0.012353645 -0.029214654 -0.006074666 0.0046511237
0.0008496565 -0.01747515 -0.009907098 0.0029718722 -0.023065943 -0.012559987 0.010425509 0.04095236
-0.0018114873 -0.022746067 0.023449894 -0.020534087 0.021503475 -0.01914206 -0.016305633 -0.02459153
-0.027414475 -0.018420184 -0.029374959 0.025655998 -0.01192697 -0.010617046 0.0076528043 0.0043517496
0.017042423 0.015491701 -0.0027868126 -0.021876447 0.020647828 0.012736262 0.008878867 0.00053047
-0.01203045 0.020829692 -0.000329178 0.0031659934 -0.0038776419 0.037916724 0.026012693 0.004032475
0.032765735 -0.0061649033 -0.029024754 -0.00418851 0.006415181 0.01635125 0.0068545225 -0.039524823
-3.0650503e-05 -0.020633027 -0.035747096 -0.018810976 0.013350184 -0.031467684 -0.0071681985 0.024429806
0.0038922469 -0.0029025532 -0.0028716575 0.024700236 0.03804184 0.0036240434 -0.02559261 -0.01644615
-0.02012397 0.026419815 -0.02461784 0.018571299 0.011760213 0.025205601 0.013318879 0.008373884
0.0055678845 -0.015379936 -0.03528974 -0.026533864 0.008742751 -0.038698032 -0.029890323 0.0044040256
-0.020689784 -0.011738582 -0.006387728 -0.027439691 0.00509938 -0.027823662 0.04094589 -0.017534398
0.0345922 -0.00095839816 0.041534323 -0.008402315 -0.008489649 0.032020755 -0.026209611 0.032497395

fc1.bias f4 [30]
00000000: f24f a73b 1af9 fcbb a0d8 67bb 21d9 463c
00000010: d155 2c3d 8b7f a33c 6e68 be3c ff3e ec3b
00000020: 6952 ba3c bc4b f7bb a679 03bc fa53 69bd
00000030: c2d1 cbbb 22f8 cc3c 36d9 acbc 58a2 be3c
00000040: 92f0 23bd 903a 01bd 2fa4 503d 377d b23c
00000050: 7673 023d f0da 75bc cb23 02bd 4c6d 793b
00000060: 5e54 4ebc 607e 6f3c 2937 903c ea26 14bd
00000070: 9534 a13c 2474 f73a
0.005105966 -0.007720125 -0.0035376921 0.0121367285 0.04207403 0.019958278 0.023243155 0.007209658
0.022744374 -0.00754687 -0.008024609 -0.056964852 -0.0062200734 0.025020663 -0.021099668 0.02327077
-0.040024348 -0.03154999 0.050937828 0.021788223 0.031848393 -0.015005812 -0.031772416 0.003805953
-0.012593357 0.0146175325 0.017604427 -0.036169924 0.019678393 0.0018879217

fc2.weight f4 [30, 30]
00000000: 83da 12be 9368 63bc 2fb8 653d 5152 4b3e
00000010: e35d e2bd 9e54 b5bd da87 6bbc c532 c63d
00000020: 226d 2c3d 81b5 2a3e 94d4 93bd 30f9 b8be
00000030: 48fc c83c 2c64 3cbb c9da e33e a3f4 493d
00000040: 0f49 62bc cf72 f2bd 953e e7bd e88e 393d
00000050: eaa4 4d3e 76cd 38be 015f 6abd e895 52be
00000060: ab81 26be bc89 b53e 38b5 f53c f26f 2cbe
00000070: 8442 1c3e d333 313e e0ae 93bb 003f f93d
00000080: 3ad0 16bd 3975 9dbc ae48 0bbe 1ed0 1ebe
00000090: b367 63be 1d0d fabc 4896 943c 9770 dfbd
000000a0: d0bb 7abd aa30 4abe bb3c 86bd bc29 8d3d
000000b0: 0268 6a3c a01c 11be 80aa 553b 406b 7dbd
000000c0: bebf 363e 9214 eb3c 3f8c d43b 17b2 2f3e
000000d0: d16d e7bc d3fb 1abe bc85 ed3d ae4d b93d
000000e0: b068 583c b034 323e aee0 b93c c8f0 fdbd
000000f0: 46f4 1fbe 5c1e 01be a6d7 41bb 1cc1 b13c
00000100: 6f90 903d fbf2 73bd 53a0 c83d 4369 a0bd
00000110: 7814 be3d 9499 8c3d 8ba7 9fbc 618e 99be
00000120: 1480 e6bd 283a be3d e89e a73e 1ba6 ed3d
00000130: 0439 e53d 91dc b0bc 57a2 0d3e e334 09be
00000140: f906 833e a325 8cbe b1ff 59be 18e6 093e
00000150: 86b5 9e3d ee3b f93d 7b36 20be 1858 023e
00000160: 0b13 a6be e353 3e3e 75a9 a6bd 5982 10be
00000170: 45a3 5f3e b95e b4bd 6c20 593e d7e7 a9bd
00000180: ddf9 3c3d 146d c63d 3c9b 57bd ff23 2bbe
00000190: 2df8 113e 0faf 723e 8619 8d3d 56ab 143e
000001a0: c0a6 373e 3ddd 2ebe 9d1d e83d 31bd 19bc
000001b0: a9e0 b8bd 2469 eb3d 458b 573e a3ad 6e3e
000001c0: d951 fd3d 5162 fe3d 2888 153e b84f 36bd
000001d0: ee61 0b3e bf78 82bc dae0 97be 85e7 3f3e
000001e0: bed6 06be a9f7 2cbd eedb 24be c82f 7c3e
000001f0: bbd8 cdbb d919 c43d 4bf5 c63d 22b6 ab3b
00000200: fc57 b33d 0cd3 c63d b8be dc3d f5d0 21bd
00000210: 7122 bdbd 622e 70bc 1a41 353e 4aff 21be
00000220: ed4f 133e 3ac6 24bb c2d3 5abe 11ff f93d
00000230: 77fa 58be 725e 04be 4ffe 6fbd e8df a23e
00000240: 97fa e1bd 3cdf 543e 517f 0fbe c465 a13d
00000250: 266e 333e 2abf 1fbe 58cf e73d 0850 ad3c
00000260: ba5a f2bd 2932 82bd 06f1 203d c868 843d
00000270: 6f04 023e 8484 3a3e 3f78 90bd 79ad a23d
00000280: acd7 c0bd 0f1c 853d 37ab 2fbe 38c6 08bd
00000290: b65b 3abc c6cc 9abe 1c2d 243d c0da 3d3b
000002a0: 2f98 353e 74e9 2c3e 0032 6c3d 649c bc3e
000002b0: ff03 843d 2fcb 06be f452 1abd 5cf0 e03d
000002c0: acc3 00bd f8c5 33bd 1f0d afbe dec1 cfbd
000002d0: ec3d 92bd 0068 6c39 4dc5 193e bc9f 7bbe
000002e0: 0e2b 0d3d 1b01 30be b751 403e 5b9b 9bbd
000002f0: 82c8 143e 5121 9bbd e4d8 483d 090e 25be
00000300: 055c c8bd a5f2 283c 21d6 f3be f3b2 9ebe
00000310: ca41 fd3d 1110 113e 0a39 8cbe 8043 7e3c
00000320: 801b 1dbe 10ff 753e 691d 1dbe 2aa9 3abd
00000330: 5254 bb3d 61fa 7dbc 62d5 353e 0cff 07be
00000340: 6c43 973d 4b0a 73bd aef9 983d 9045 0e3e
00000350: 5edf ecbd e6d7 f3bc 1caf 943e 5474 093e
00000360: 4e3b eb3d 0692 2ebc 7dc2 5c3d b877 b9bd
00000370: 90a0 f13d f137 0abb feb4 c2bd aa63 073e
00000380: 1fc4 9cbe a1b0 04be 621e b93c ef33 81bc
00000390: 9981 f2bd 9e2a bebd 8a83 42be 0b10 a83e
000003a0: a628 823e c337 983e 9f4a 9f3d 3d36 5ebd
000003b0: a200 b1bd 2b6d 0c3e b1c4 8fbd 31b4 0dbc
000003c0: 6821 2d3d f6d7 173e 7051 b9bd 79c5 9bbd
000003d0: 6c3d 2cbe b4e0 2d3d d31c 49be 9047 b8bc
000003e0: 9c78 babd 1e4f 37be 9888 6abd e5b0 07be
000003f0: b0db 4abc 2c0e 073e 2c26 efbc 3e15 1dbe
-0.14341168 -0.013879913 0.056083854 0.1985562 -0.11053064 -0.0885403 -0.014375651 0.09677652
0.042096265 0.16670801 -0.072182804 -0.36127615 0.02453436 -0.002874623 0.44502857 0.04930557
-0.013811364 -0.11838304 -0.112912335 0.0453023 0.20082441 -0.18047127 -0.05721951 -0.20564997
-0.16260402 0.35456645 0.029993638 -0.16839579 0.15259749 0.17304926 -0.0045069307 0.121702194
-0.036819674 -0.019220935 -0.13601944 -0.15509078 -0.22207527 -0.030523831 0.018138066 -0.10910147
-0.06121427 -0.19745126 -0.06554552 0.06892726 0.014307024 -0.14171076 0.0032602847 -0.06186986
0.17846581 0.028696332 0.006486445 0.1715778 -0.028250607 -0.15135126 0.115977734 0.09048019
0.013208553 0.17402911 0.022690143 -0.12399441 -0.15620527 -0.12609237 -0.0029578 0.021698527
0.070587985 -0.059557896 0.097962044 -0.07832577 0.09281248 0.0686523 -0.01948907 -0.2999144
-0.11254898 0.09288436 0.32738423 0.11603948 0.111925155 -0.02158955 0.13831459 -0.13399081
0.25591257 -0.27372465 -0.21288945 0.1346668 0.077494666 0.12169634 -0.15645783 0.12728918
-0.32436404 0.18586688 -0.0813779 -0.14112224 0.21839626 -0.088071294 0.21203774 -0.08296173
0.046136726 0.09688774 -0.052638277 -0.1671295 0.14254828 0.23699592 0.06889634 0.14518484
0.17934704 -0.17076583 0.11333773 -0.009383486 -0.090272255 0.11494663 0.21049221 0.23308425
0.12369127 0.12421096 0.1460272 -0.04450962 0.13611576 -0.015926717 -0.29663736 0.18740661
-0.13167855 -0.042228375 -0.16099522 0.24627602 -0.00628194 0.095752425 0.09714755 0.005240218
0.08757016 0.09708223 0.10778564 -0.039505918 -0.09235085 -0.014659496 0.17700616 -0.15820041
0.14385958 -0.0025142566 -0.21369842 0.12206853 -0.21189295 -0.12926653 -0.058592137 0.31811452
-0.11034124 0.20788282 -0.14013411 0.078807384 0.17522487 -0.15600267 0.113188446 0.021156326
-0.11833711 -0.063572235 0.039292358 0.06465298 0.12697004 0.18214613 -0.07054185 0.079432435
-0.09416136 0.064994924 -0.17155157 -0.03339216 -0.011374405 -0.30234355 0.040082082 0.0028969496
0.17733835 0.1688593 0.05766487 0.36838067 0.06446075 -0.13163446 -0.037676767 0.10983345
-0.031436607 -0.04388997 -0.34189698 -0.10144399 -0.07140717 0.00022545457 0.1501667 -0.24572653
0.03446489 -0.17187922 0.18781172 -0.07597991 0.14529613 -0.07574714 0.049034968 -0.16118635
-0.09783176 0.010311757 -0.47624305 -0.30995902 0.12366064 0.14166285 -0.27387267 0.015519023
-0.15342522 0.2402308 -0.1534325 -0.045571484 0.09146942 -0.0155015895 0.1775718 -0.13280886
0.073859066 -0.059335988 0.074694976 0.13893723 -0.115660414 -0.029766034 0.29039848 0.13423282
0.11485921 -0.010654932 0.053896416 -0.09056038 0.11798203 -0.0021090473 -0.09507178 0.13221613
-0.3061838 -0.12958004 0.022597495 -0.015771834 -0.11841125 -0.09285472 -0.1899549 0.3282474
0.25421637 0.29730043 0.07777905 -0.054250944 -0.08642699 0.1371352 -0.07019938 -0.008648918
0.042268187 0.14828476 -0.09048736 -0.07606024 -0.16820306 0.04245062 -0.19639902 -0.022495061
-0.09105036 -0.17901275 -0.057259172 -0.13251074 -0.012381479 0.13189 -0.029193006 -0.15340135

fc2.bias f4 [30]
00000000: 2018 12be 41a9 b03d f6cd d03c 1bfb e7bd
00000010: bde8 4a3e a6ff b9bd 3a87 8c3d 9aa4 073e
00000020: f8c2 bdbb c033 e9bd 49e8 bfbd 1003 52bb
00000030: 5e29 6bbe 665d 6fbd 9723 40bc 2007 2f3d
00000040: 5bc4 d03d 416f 12be 1b75 80bd 1ea3 2b3e
00000050: 5190 58bd 02eb 72be 5b0a c4bd 0085 253e
00000060: ef62 5abd dd23 19be e14f 003e f0e6 7f3d
00000070: 446a 88bd 3668 3b3d
-0.14267015 0.086260326 0.025488835 -0.113271914 0.19815345 -0.09081964 0.0686173 0.13246384
-0.0057910644 -0.11386824 -0.09370477 -0.0032045282 -0.22964999 -0.05843868 -0.011727235 0.042731404
0.10193702 -0.14300252 -0.06272336 0.16761443 -0.052872006 -0.23722461 -0.09572288 0.16164017
-0.053317007 -0.14955087 0.12530471 0.0624761 -0.066608936 0.04575368

fc3.weight f4 [10, 30]
00000000: 6cd4 b2be 475d aa3e ff65 12be e9ba 633e
00000010: 61db 77be 2071 183e b5bb a8be b990 513e
00000020: fe12 21bd badc 01bd 2b19 99be f7b6 3b3d
00000030: ae29 00be 9ce2 1c3e c028 3abe 6d34 803d
00000040: 29af 1dbd c4bc dcbe 316c 133e a6ae 833e
00000050: 045d 82be c454 ba3d a961 90bd 70da e0bd
00000060: f05d 87be 6aa1 debc 7367 dfbd e0e0 1ebe
00000070: bf30 a0bc 6e9f 1b3e 732a 32bd 1765 2abd
00000080: b09f 16be 54d6 413e 15f9 a0be 063b cebe
00000090: 558c 073e bf34 cdbe 0e5c 783d 83f1 23be
000000a0: c8a4 a5be e95c 7fbc 558f e93c 4d10 3abe
000000b0: 1141 8d3d b136 b6be 8cda 473d 1af9 793e
000000c0: cc59 cabe 9ecb 99be e91f 6abc dd30 593e
000000d0: 4263 0d3e 03e9 e0be fec6 c63d 0b72 b2be
000000e0: d637 29be e068 cfbe f077 1bbe 4162 1a3e
000000f0: 821f ac3d a9de 70be 4927 723e 9d7f 703c
00000100: 4e07 e23d 1fc3 c1bc 9982 1dbe b796 f53c
00000110: 1bda 22bd 768b c03d ac32 cf3c c4fe bfbe
00000120: 871c 16be 0816 dabd 81cf 733e ecbf 2f3e
00000130: d868 f8bd 627f 933d 197d e83c e665 b33e
00000140: e143 87be 9249 793e e8e1 05be deca 093d
00000150: d231 17be fa7c 02bf 874b a1bd 9587 a73b
00000160: 27ec e4bd cebc 13be e5ee 833e cc58 88be
00000170: 7c65 8d3e 482f 773e bfe4 ae3d 46ba 29bf
00000180: 2447 15be 38dd 3ebe fcab fa3d 8504 613e
00000190: fc30 423d 6d45 35be cb1d 1b3e 0491 e4bc
000001a0: 1bb7 59be e45a 52be 5ce4 24be 23a2 5cbe
000001b0: 50e2 143e d9e4 70be 0760 c63d 0af2 3abe
000001c0: acaf 4e3e 7960 2abe d186 b2be bca8 3cbd
000001d0: 8842 2d3e c6c2 6abe 978b 293e d070 1f3e
000001e0: 36ed 71be d413 03be d856 1bbe 8953 95be
000001f0: f3e9 cbbd 879a ac3d e634 0a3e 4cc4 4e3e
00000200: 4d98 cc3d 2f90 d2be b201 81be a880 0c3c
00000210: 21b6 1fbe 7da5 17be c8a6 c9be 1905 e5be
00000220: 37f3 fcbd 3bfa 133d b67b 6b3e be32 5b3e
00000230: d056 303e 998b 1fbe 9724 1dbe 86c7 0f3d
00000240: 9408 0a3d f8a2 50bd c5a7 83bd 4cf5 b03e
00000250: a5e8 92bd 27fc bfbe e2cc 0e3e ed50 90bd
00000260: 6f36 35bd 3e6d febd b1e6 6ebe f275 2abf
00000270: 3c27 88be 5be7 53be 91a9 abbd c759 773e
00000280: 5017 c7be 7360 423e 3f3c 5abd 0a62 b63d
00000290: 18f7 ebbe 6c70 1dbc da2a 48be 48d1 fe3c
000002a0: cfb0 643e 4da2 adbe 07c2 c6be 03ee d83c
000002b0: 1e42 60bd f04c ab3d 5d39 033e 0ca6 183e
000002c0: 3dc8 213e 7916 243e feda 28be ca83 4d3e
000002d0: 668a 02bf 840d fbbe 61ff c3bd b339 653e
000002e0: ffc9 36be 3008 d7bd 6bef 993c 20e0 473e
000002f0: 189d e5bd f5bd 7c3d f0bb 5bbe b615 29bd
00000300: 951e 0c3d 82c1 9e3c fe10 6d3e 20d2 2f3d
00000310: c498 053e f458 5e3e 2b59 3bbd 6590 b2be
00000320: a9e9 03bf aeb7 273e 54d4 6cbe fa13 6e3e
00000330: 2238 79be 9636 fc3d 6339 3ebe 2184 133e
00000340: e669 c6bd 22c1 94be 8d04 0e3e 5b87 a2bd
00000350: 2789 1e3d 2f64 9cbe 6411 813e 4537 80bd
00000360: 63e2 aa3e 9bf5 fdbd 1561 6a3d 584a 1fbf
00000370: f606 a7bd c3ac c3bd 9d36 77bb f553 b1bd
00000380: a16d cd3d ff64 d63e 5ac7 b7be c3b6 89be
00000390: 0381 9bbd 8eb9 173e e384 0f3c 05ee 393e
000003a0: b72c 44be 900a 93bd 918e a3bd a627 febe
000003b0: 81d3 013e 8769 b1bd 602f 3bbe a1f1 d23d
000003c0: 9a4b c0bc 2100 fabd 415b 8dbd 284c 7abe
000003d0: 674a 71be 0790 03be 2f39 95be 1eff a2be
000003e0: 484c 1dbe d875 f53d 3a0b 0abe fc73 1a3d
000003f0: fced a63d 5def cdbd 0f47 58bd 51ad 4cbe
-0.3492769 0.3327429 -0.14296721 0.2223927 -0.2420478 0.14886904 -0.3295571 0.20465364
-0.039324753 -0.031704642 -0.29902014 0.045828786 -0.125159 0.1532082 -0.18179607 0.062599994
-0.038497124 -0.43112767 0.1439674 0.25719184 -0.2546159 0.09098199 -0.07049877 -0.10979164
-0.26438856 -0.027176578 -0.10908403 -0.1551547 -0.019554494 0.15197536 -0.043497514 -0.041600313
-0.14709353 0.18929416 -0.31440035 -0.40279406 0.13237126 -0.40079305 0.060634665 -0.16010098
-0.3235228 -0.015586116 0.028510729 -0.18170281 0.06897176 -0.355886 0.048792407 0.24411431
-0.39521635 -0.3003816 -0.014289835 0.21210046 0.13807395 -0.43927774 0.097059235 -0.34852633
-0.16525206 -0.405097 -0.15182471 0.15076543 0.08404447 -0.23522438 0.23647799 0.014678863
0.110365495 -0.023652611 -0.1538185 0.029979093 -0.039758783 0.094016 0.025292717 -0.37499058
-0.1465932 -0.106487334 0.23809625 0.17163056 -0.12129372 0.07202031 0.028379964 0.3503868
-0.26418975 0.24344471 -0.13074458 0.033640735 -0.14765099 -0.5097195 -0.07875734 0.005112598
-0.11177855 -0.14427492 0.257682 -0.26630247 0.2761649 0.2413913 0.085397236 -0.66299856
-0.14577919 -0.18639076 0.12239835 0.2197438 0.047409996 -0.17702265 0.15148084 -0.02790118
-0.21261255 -0.20542485 -0.16102737 -0.21546225 0.14539456 -0.23524798 0.096862845 -0.18256393
0.20184201 -0.16638364 -0.34868482 -0.046059355 0.16919911 -0.22925863 0.16557156 0.15570378
-0.23625645 -0.12800533 -0.15169847 -0.29165295 -0.09956732 0.08427911 0.13496742 0.20192069
0.099899866 -0.41125628 -0.25196606 0.008575596 -0.1559682 -0.14809223 -0.39385056 -0.44730452
-0.12351077 0.03612731 0.2299641 0.21406075 0.17220616 -0.15580596 -0.15345989 0.03510239
0.033699587 -0.05093667 -0.06428484 0.34562147 -0.0717328 -0.37497064 0.13945344 -0.07046685
-0.044241365 -0.1242318 -0.2333019 -0.6658622 -0.26592433 -0.20693724 -0.083819516 0.24155341
-0.38884974 0.18982105 -0.05328011 0.08905418 -0.46086955 -0.009609323 -0.19547597 0.031105652
0.22333072 -0.33912888 -0.38819906 0.02648068 -0.054750554 0.08364284 0.12814851 0.14907092
0.15799041 0.16024198 -0.16489789 0.20069805 -0.5099243 -0.4903375 -0.09570194 0.22385292
-0.17850493 -0.104996085 0.018790921 0.1951909 -0.11211604 0.061704595 -0.21458411 -0.04128047
0.034208853 0.019379381 0.23151013 0.042925 0.13046557 0.2171362 -0.045739334 -0.3487579
-0.5152841 0.16378662 -0.23127872 0.23249808 -0.24337819 0.12315099 -0.18576579 0.14405872
-0.09688167 -0.290536 0.13868923 -0.07935973 0.038705017 -0.30545184 0.2520858 -0.06260542
0.33375844 -0.12400361 0.05722149 -0.62222815 -0.081556246 -0.09554436 -0.003772176 -0.08658592
0.10030676 0.4187393 -0.3589428 -0.2689725 -0.075929664 0.14816877 0.00875971 0.18157203
-0.19157682 -0.07179749 -0.07986177 -0.49639624 0.12678339 -0.08662706 -0.18279791 0.10299993
-0.02347355 -0.12207056 -0.06902171 -0.24443114 -0.23563538 -0.12847911 -0.2914519 -0.31835264
-0.1536113 0.119853675 -0.13480845 0.037708268 0.08150861 -0.100554205 -0.05280214 -0.1998799

fc3.bias f4 [10]
00000000: 35a3 d6bd 32da 55be c9f7 723d 619b d53c
00000010: 8cb7 373e 5aec ecbc b780 a13d 0b45 b73d
00000020: 9f3d 323e 6e88 963d
-0.10480348 -0.20884016 0.059318338 0.026075067 0.17941111 -0.028921295 0.078858785 0.08948716
0.17406319 0.07350241
